{"generatedBy": "keras v2.3.1", "modelTopology": {"keras_version": "2.3.1", "training_config": {"weighted_metrics": null, "loss_weights": null, "loss": "categorical_crossentropy", "metrics": ["accuracy"], "optimizer_config": {"config": {"beta_2": 0.9990000128746033, "amsgrad": false, "beta_1": 0.8999999761581421, "learning_rate": 9.999999747378752e-05, "epsilon": 1e-07, "decay": 0.0}, "class_name": "Adam"}, "sample_weight_mode": null}, "model_config": {"config": {"name": "model_1", "layers": [{"name": "input_1", "config": {"name": "input_1", "sparse": false, "batch_input_shape": [null, null, null, 3], "dtype": "float32"}, "class_name": "InputLayer", "inbound_nodes": []}, {"name": "Conv1_pad", "config": {"name": "Conv1_pad", "data_format": "channels_last", "trainable": true, "dtype": "float32", "padding": [[0, 1], [0, 1]]}, "class_name": "ZeroPadding2D", "inbound_nodes": [[["input_1", 0, 0, {}]]]}, {"name": "Conv1", "config": {"bias_initializer": {"config": {}, "class_name": "Zeros"}, "kernel_constraint": null, "dtype": "float32", "strides": [2, 2], "bias_constraint": null, "trainable": true, "kernel_regularizer": null, "activity_regularizer": null, "name": "Conv1", "use_bias": false, "kernel_size": [3, 3], "dilation_rate": [1, 1], "padding": "valid", "kernel_initializer": {"config": {"seed": null, "scale": 1.0, "mode": "fan_avg", "distribution": "uniform"}, "class_name": "VarianceScaling"}, "bias_regularizer": null, "data_format": "channels_last", "activation": "linear", "filters": 32}, "class_name": "Conv2D", "inbound_nodes": [[["Conv1_pad", 0, 0, {}]]]}, {"name": "bn_Conv1", "config": {"scale": true, "beta_regularizer": null, "gamma_regularizer": null, "dtype": "float32", "beta_initializer": {"config": {}, "class_name": "Zeros"}, "center": true, "momentum": 0.999, "moving_mean_initializer": {"config": {}, "class_name": "Zeros"}, "trainable": true, "gamma_constraint": null, "name": "bn_Conv1", "moving_variance_initializer": {"config": {}, "class_name": "Ones"}, "gamma_initializer": {"config": {}, "class_name": "Ones"}, "axis": -1, "beta_constraint": null, "epsilon": 0.001}, "class_name": "BatchNormalization", "inbound_nodes": [[["Conv1", 0, 0, {}]]]}, {"name": "Conv1_relu", "config": {"name": "Conv1_relu", "threshold": 0.0, "negative_slope": 0.0, "dtype": "float32", "trainable": true, "max_value": 6.0}, "class_name": "ReLU", "inbound_nodes": [[["bn_Conv1", 0, 0, {}]]]}, {"name": "expanded_conv_depthwise", "config": {"bias_initializer": {"config": {}, "class_name": "Zeros"}, "trainable": true, "dtype": "float32", "depth_multiplier": 1, "strides": [1, 1], "bias_constraint": null, "data_format": "channels_last", "depthwise_constraint": null, "activity_regularizer": null, "name": "expanded_conv_depthwise", "use_bias": false, "kernel_size": [3, 3], "dilation_rate": [1, 1], "padding": "same", "depthwise_initializer": {"config": {"seed": null, "scale": 1.0, "mode": "fan_avg", "distribution": "uniform"}, "class_name": "VarianceScaling"}, "bias_regularizer": null, "depthwise_regularizer": null, "activation": "linear"}, "class_name": "DepthwiseConv2D", "inbound_nodes": [[["Conv1_relu", 0, 0, {}]]]}, {"name": "expanded_conv_depthwise_BN", "config": {"scale": true, "beta_regularizer": null, "gamma_regularizer": null, "dtype": "float32", "beta_initializer": {"config": {}, "class_name": "Zeros"}, "center": true, "momentum": 0.999, "moving_mean_initializer": {"config": {}, "class_name": "Zeros"}, "trainable": true, "gamma_constraint": null, "name": "expanded_conv_depthwise_BN", "moving_variance_initializer": {"config": {}, "class_name": "Ones"}, "gamma_initializer": {"config": {}, "class_name": "Ones"}, "axis": -1, "beta_constraint": null, "epsilon": 0.001}, "class_name": "BatchNormalization", "inbound_nodes": [[["expanded_conv_depthwise", 0, 0, {}]]]}, {"name": "expanded_conv_depthwise_relu", "config": {"name": "expanded_conv_depthwise_relu", "threshold": 0.0, "negative_slope": 0.0, "dtype": "float32", "trainable": true, "max_value": 6.0}, "class_name": "ReLU", "inbound_nodes": [[["expanded_conv_depthwise_BN", 0, 0, {}]]]}, {"name": "expanded_conv_project", "config": {"bias_initializer": {"config": {}, "class_name": "Zeros"}, "kernel_constraint": null, "dtype": "float32", "strides": [1, 1], "bias_constraint": null, "trainable": true, "kernel_regularizer": null, "activity_regularizer": null, "name": "expanded_conv_project", "use_bias": false, "kernel_size": [1, 1], "dilation_rate": [1, 1], "padding": "same", "kernel_initializer": {"config": {"seed": null, "scale": 1.0, "mode": "fan_avg", "distribution": "uniform"}, "class_name": "VarianceScaling"}, "bias_regularizer": null, "data_format": "channels_last", "activation": "linear", "filters": 16}, "class_name": "Conv2D", "inbound_nodes": [[["expanded_conv_depthwise_relu", 0, 0, {}]]]}, {"name": "expanded_conv_project_BN", "config": {"scale": true, "beta_regularizer": null, "gamma_regularizer": null, "dtype": "float32", "beta_initializer": {"config": {}, "class_name": "Zeros"}, "center": true, "momentum": 0.999, "moving_mean_initializer": {"config": {}, "class_name": "Zeros"}, "trainable": true, "gamma_constraint": null, "name": "expanded_conv_project_BN", "moving_variance_initializer": {"config": {}, "class_name": "Ones"}, "gamma_initializer": {"config": {}, "class_name": "Ones"}, "axis": -1, "beta_constraint": null, "epsilon": 0.001}, "class_name": "BatchNormalization", "inbound_nodes": [[["expanded_conv_project", 0, 0, {}]]]}, {"name": "block_1_expand", "config": {"bias_initializer": {"config": {}, "class_name": "Zeros"}, "kernel_constraint": null, "dtype": "float32", "strides": [1, 1], "bias_constraint": null, "trainable": true, "kernel_regularizer": null, "activity_regularizer": null, "name": "block_1_expand", "use_bias": false, "kernel_size": [1, 1], "dilation_rate": [1, 1], "padding": "same", "kernel_initializer": {"config": {"seed": null, "scale": 1.0, "mode": "fan_avg", "distribution": "uniform"}, "class_name": "VarianceScaling"}, "bias_regularizer": null, "data_format": "channels_last", "activation": "linear", "filters": 96}, "class_name": "Conv2D", "inbound_nodes": [[["expanded_conv_project_BN", 0, 0, {}]]]}, {"name": "block_1_expand_BN", "config": {"scale": true, "beta_regularizer": null, "gamma_regularizer": null, "dtype": "float32", "beta_initializer": {"config": {}, "class_name": "Zeros"}, "center": true, "momentum": 0.999, "moving_mean_initializer": {"config": {}, "class_name": "Zeros"}, "trainable": true, "gamma_constraint": null, "name": "block_1_expand_BN", "moving_variance_initializer": {"config": {}, "class_name": "Ones"}, "gamma_initializer": {"config": {}, "class_name": "Ones"}, "axis": -1, "beta_constraint": null, "epsilon": 0.001}, "class_name": "BatchNormalization", "inbound_nodes": [[["block_1_expand", 0, 0, {}]]]}, {"name": "block_1_expand_relu", "config": {"name": "block_1_expand_relu", "threshold": 0.0, "negative_slope": 0.0, "dtype": "float32", "trainable": true, "max_value": 6.0}, "class_name": "ReLU", "inbound_nodes": [[["block_1_expand_BN", 0, 0, {}]]]}, {"name": "block_1_pad", "config": {"name": "block_1_pad", "data_format": "channels_last", "trainable": true, "dtype": "float32", "padding": [[0, 1], [0, 1]]}, "class_name": "ZeroPadding2D", "inbound_nodes": [[["block_1_expand_relu", 0, 0, {}]]]}, {"name": "block_1_depthwise", "config": {"bias_initializer": {"config": {}, "class_name": "Zeros"}, "trainable": true, "dtype": "float32", "depth_multiplier": 1, "strides": [2, 2], "bias_constraint": null, "data_format": "channels_last", "depthwise_constraint": null, "activity_regularizer": null, "name": "block_1_depthwise", "use_bias": false, "kernel_size": [3, 3], "dilation_rate": [1, 1], "padding": "valid", "depthwise_initializer": {"config": {"seed": null, "scale": 1.0, "mode": "fan_avg", "distribution": "uniform"}, "class_name": "VarianceScaling"}, "bias_regularizer": null, "depthwise_regularizer": null, "activation": "linear"}, "class_name": "DepthwiseConv2D", "inbound_nodes": [[["block_1_pad", 0, 0, {}]]]}, {"name": "block_1_depthwise_BN", "config": {"scale": true, "beta_regularizer": null, "gamma_regularizer": null, "dtype": "float32", "beta_initializer": {"config": {}, "class_name": "Zeros"}, "center": true, "momentum": 0.999, "moving_mean_initializer": {"config": {}, "class_name": "Zeros"}, "trainable": true, "gamma_constraint": null, "name": "block_1_depthwise_BN", "moving_variance_initializer": {"config": {}, "class_name": "Ones"}, "gamma_initializer": {"config": {}, "class_name": "Ones"}, "axis": -1, "beta_constraint": null, "epsilon": 0.001}, "class_name": "BatchNormalization", "inbound_nodes": [[["block_1_depthwise", 0, 0, {}]]]}, {"name": "block_1_depthwise_relu", "config": {"name": "block_1_depthwise_relu", "threshold": 0.0, "negative_slope": 0.0, "dtype": "float32", "trainable": true, "max_value": 6.0}, "class_name": "ReLU", "inbound_nodes": [[["block_1_depthwise_BN", 0, 0, {}]]]}, {"name": "block_1_project", "config": {"bias_initializer": {"config": {}, "class_name": "Zeros"}, "kernel_constraint": null, "dtype": "float32", "strides": [1, 1], "bias_constraint": null, "trainable": true, "kernel_regularizer": null, "activity_regularizer": null, "name": "block_1_project", "use_bias": false, "kernel_size": [1, 1], "dilation_rate": [1, 1], "padding": "same", "kernel_initializer": {"config": {"seed": null, "scale": 1.0, "mode": "fan_avg", "distribution": "uniform"}, "class_name": "VarianceScaling"}, "bias_regularizer": null, "data_format": "channels_last", "activation": "linear", "filters": 24}, "class_name": "Conv2D", "inbound_nodes": [[["block_1_depthwise_relu", 0, 0, {}]]]}, {"name": "block_1_project_BN", "config": {"scale": true, "beta_regularizer": null, "gamma_regularizer": null, "dtype": "float32", "beta_initializer": {"config": {}, "class_name": "Zeros"}, "center": true, "momentum": 0.999, "moving_mean_initializer": {"config": {}, "class_name": "Zeros"}, "trainable": true, "gamma_constraint": null, "name": "block_1_project_BN", "moving_variance_initializer": {"config": {}, "class_name": "Ones"}, "gamma_initializer": {"config": {}, "class_name": "Ones"}, "axis": -1, "beta_constraint": null, "epsilon": 0.001}, "class_name": "BatchNormalization", "inbound_nodes": [[["block_1_project", 0, 0, {}]]]}, {"name": "block_2_expand", "config": {"bias_initializer": {"config": {}, "class_name": "Zeros"}, "kernel_constraint": null, "dtype": "float32", "strides": [1, 1], "bias_constraint": null, "trainable": true, "kernel_regularizer": null, "activity_regularizer": null, "name": "block_2_expand", "use_bias": false, "kernel_size": [1, 1], "dilation_rate": [1, 1], "padding": "same", "kernel_initializer": {"config": {"seed": null, "scale": 1.0, "mode": "fan_avg", "distribution": "uniform"}, "class_name": "VarianceScaling"}, "bias_regularizer": null, "data_format": "channels_last", "activation": "linear", "filters": 144}, "class_name": "Conv2D", "inbound_nodes": [[["block_1_project_BN", 0, 0, {}]]]}, {"name": "block_2_expand_BN", "config": {"scale": true, "beta_regularizer": null, "gamma_regularizer": null, "dtype": "float32", "beta_initializer": {"config": {}, "class_name": "Zeros"}, "center": true, "momentum": 0.999, "moving_mean_initializer": {"config": {}, "class_name": "Zeros"}, "trainable": true, "gamma_constraint": null, "name": "block_2_expand_BN", "moving_variance_initializer": {"config": {}, "class_name": "Ones"}, "gamma_initializer": {"config": {}, "class_name": "Ones"}, "axis": -1, "beta_constraint": null, "epsilon": 0.001}, "class_name": "BatchNormalization", "inbound_nodes": [[["block_2_expand", 0, 0, {}]]]}, {"name": "block_2_expand_relu", "config": {"name": "block_2_expand_relu", "threshold": 0.0, "negative_slope": 0.0, "dtype": "float32", "trainable": true, "max_value": 6.0}, "class_name": "ReLU", "inbound_nodes": [[["block_2_expand_BN", 0, 0, {}]]]}, {"name": "block_2_depthwise", "config": {"bias_initializer": {"config": {}, "class_name": "Zeros"}, "trainable": true, "dtype": "float32", "depth_multiplier": 1, "strides": [1, 1], "bias_constraint": null, "data_format": "channels_last", "depthwise_constraint": null, "activity_regularizer": null, "name": "block_2_depthwise", "use_bias": false, "kernel_size": [3, 3], "dilation_rate": [1, 1], "padding": "same", "depthwise_initializer": {"config": {"seed": null, "scale": 1.0, "mode": "fan_avg", "distribution": "uniform"}, "class_name": "VarianceScaling"}, "bias_regularizer": null, "depthwise_regularizer": null, "activation": "linear"}, "class_name": "DepthwiseConv2D", "inbound_nodes": [[["block_2_expand_relu", 0, 0, {}]]]}, {"name": "block_2_depthwise_BN", "config": {"scale": true, "beta_regularizer": null, "gamma_regularizer": null, "dtype": "float32", "beta_initializer": {"config": {}, "class_name": "Zeros"}, "center": true, "momentum": 0.999, "moving_mean_initializer": {"config": {}, "class_name": "Zeros"}, "trainable": true, "gamma_constraint": null, "name": "block_2_depthwise_BN", "moving_variance_initializer": {"config": {}, "class_name": "Ones"}, "gamma_initializer": {"config": {}, "class_name": "Ones"}, "axis": -1, "beta_constraint": null, "epsilon": 0.001}, "class_name": "BatchNormalization", "inbound_nodes": [[["block_2_depthwise", 0, 0, {}]]]}, {"name": "block_2_depthwise_relu", "config": {"name": "block_2_depthwise_relu", "threshold": 0.0, "negative_slope": 0.0, "dtype": "float32", "trainable": true, "max_value": 6.0}, "class_name": "ReLU", "inbound_nodes": [[["block_2_depthwise_BN", 0, 0, {}]]]}, {"name": "block_2_project", "config": {"bias_initializer": {"config": {}, "class_name": "Zeros"}, "kernel_constraint": null, "dtype": "float32", "strides": [1, 1], "bias_constraint": null, "trainable": true, "kernel_regularizer": null, "activity_regularizer": null, "name": "block_2_project", "use_bias": false, "kernel_size": [1, 1], "dilation_rate": [1, 1], "padding": "same", "kernel_initializer": {"config": {"seed": null, "scale": 1.0, "mode": "fan_avg", "distribution": "uniform"}, "class_name": "VarianceScaling"}, "bias_regularizer": null, "data_format": "channels_last", "activation": "linear", "filters": 24}, "class_name": "Conv2D", "inbound_nodes": [[["block_2_depthwise_relu", 0, 0, {}]]]}, {"name": "block_2_project_BN", "config": {"scale": true, "beta_regularizer": null, "gamma_regularizer": null, "dtype": "float32", "beta_initializer": {"config": {}, "class_name": "Zeros"}, "center": true, "momentum": 0.999, "moving_mean_initializer": {"config": {}, "class_name": "Zeros"}, "trainable": true, "gamma_constraint": null, "name": "block_2_project_BN", "moving_variance_initializer": {"config": {}, "class_name": "Ones"}, "gamma_initializer": {"config": {}, "class_name": "Ones"}, "axis": -1, "beta_constraint": null, "epsilon": 0.001}, "class_name": "BatchNormalization", "inbound_nodes": [[["block_2_project", 0, 0, {}]]]}, {"name": "block_2_add", "config": {"name": "block_2_add", "trainable": true, "dtype": "float32"}, "class_name": "Add", "inbound_nodes": [[["block_1_project_BN", 0, 0, {}], ["block_2_project_BN", 0, 0, {}]]]}, {"name": "block_3_expand", "config": {"bias_initializer": {"config": {}, "class_name": "Zeros"}, "kernel_constraint": null, "dtype": "float32", "strides": [1, 1], "bias_constraint": null, "trainable": true, "kernel_regularizer": null, "activity_regularizer": null, "name": "block_3_expand", "use_bias": false, "kernel_size": [1, 1], "dilation_rate": [1, 1], "padding": "same", "kernel_initializer": {"config": {"seed": null, "scale": 1.0, "mode": "fan_avg", "distribution": "uniform"}, "class_name": "VarianceScaling"}, "bias_regularizer": null, "data_format": "channels_last", "activation": "linear", "filters": 144}, "class_name": "Conv2D", "inbound_nodes": [[["block_2_add", 0, 0, {}]]]}, {"name": "block_3_expand_BN", "config": {"scale": true, "beta_regularizer": null, "gamma_regularizer": null, "dtype": "float32", "beta_initializer": {"config": {}, "class_name": "Zeros"}, "center": true, "momentum": 0.999, "moving_mean_initializer": {"config": {}, "class_name": "Zeros"}, "trainable": true, "gamma_constraint": null, "name": "block_3_expand_BN", "moving_variance_initializer": {"config": {}, "class_name": "Ones"}, "gamma_initializer": {"config": {}, "class_name": "Ones"}, "axis": -1, "beta_constraint": null, "epsilon": 0.001}, "class_name": "BatchNormalization", "inbound_nodes": [[["block_3_expand", 0, 0, {}]]]}, {"name": "block_3_expand_relu", "config": {"name": "block_3_expand_relu", "threshold": 0.0, "negative_slope": 0.0, "dtype": "float32", "trainable": true, "max_value": 6.0}, "class_name": "ReLU", "inbound_nodes": [[["block_3_expand_BN", 0, 0, {}]]]}, {"name": "block_3_pad", "config": {"name": "block_3_pad", "data_format": "channels_last", "trainable": true, "dtype": "float32", "padding": [[0, 1], [0, 1]]}, "class_name": "ZeroPadding2D", "inbound_nodes": [[["block_3_expand_relu", 0, 0, {}]]]}, {"name": "block_3_depthwise", "config": {"bias_initializer": {"config": {}, "class_name": "Zeros"}, "trainable": true, "dtype": "float32", "depth_multiplier": 1, "strides": [2, 2], "bias_constraint": null, "data_format": "channels_last", "depthwise_constraint": null, "activity_regularizer": null, "name": "block_3_depthwise", "use_bias": false, "kernel_size": [3, 3], "dilation_rate": [1, 1], "padding": "valid", "depthwise_initializer": {"config": {"seed": null, "scale": 1.0, "mode": "fan_avg", "distribution": "uniform"}, "class_name": "VarianceScaling"}, "bias_regularizer": null, "depthwise_regularizer": null, "activation": "linear"}, "class_name": "DepthwiseConv2D", "inbound_nodes": [[["block_3_pad", 0, 0, {}]]]}, {"name": "block_3_depthwise_BN", "config": {"scale": true, "beta_regularizer": null, "gamma_regularizer": null, "dtype": "float32", "beta_initializer": {"config": {}, "class_name": "Zeros"}, "center": true, "momentum": 0.999, "moving_mean_initializer": {"config": {}, "class_name": "Zeros"}, "trainable": true, "gamma_constraint": null, "name": "block_3_depthwise_BN", "moving_variance_initializer": {"config": {}, "class_name": "Ones"}, "gamma_initializer": {"config": {}, "class_name": "Ones"}, "axis": -1, "beta_constraint": null, "epsilon": 0.001}, "class_name": "BatchNormalization", "inbound_nodes": [[["block_3_depthwise", 0, 0, {}]]]}, {"name": "block_3_depthwise_relu", "config": {"name": "block_3_depthwise_relu", "threshold": 0.0, "negative_slope": 0.0, "dtype": "float32", "trainable": true, "max_value": 6.0}, "class_name": "ReLU", "inbound_nodes": [[["block_3_depthwise_BN", 0, 0, {}]]]}, {"name": "block_3_project", "config": {"bias_initializer": {"config": {}, "class_name": "Zeros"}, "kernel_constraint": null, "dtype": "float32", "strides": [1, 1], "bias_constraint": null, "trainable": true, "kernel_regularizer": null, "activity_regularizer": null, "name": "block_3_project", "use_bias": false, "kernel_size": [1, 1], "dilation_rate": [1, 1], "padding": "same", "kernel_initializer": {"config": {"seed": null, "scale": 1.0, "mode": "fan_avg", "distribution": "uniform"}, "class_name": "VarianceScaling"}, "bias_regularizer": null, "data_format": "channels_last", "activation": "linear", "filters": 32}, "class_name": "Conv2D", "inbound_nodes": [[["block_3_depthwise_relu", 0, 0, {}]]]}, {"name": "block_3_project_BN", "config": {"scale": true, "beta_regularizer": null, "gamma_regularizer": null, "dtype": "float32", "beta_initializer": {"config": {}, "class_name": "Zeros"}, "center": true, "momentum": 0.999, "moving_mean_initializer": {"config": {}, "class_name": "Zeros"}, "trainable": true, "gamma_constraint": null, "name": "block_3_project_BN", "moving_variance_initializer": {"config": {}, "class_name": "Ones"}, "gamma_initializer": {"config": {}, "class_name": "Ones"}, "axis": -1, "beta_constraint": null, "epsilon": 0.001}, "class_name": "BatchNormalization", "inbound_nodes": [[["block_3_project", 0, 0, {}]]]}, {"name": "block_4_expand", "config": {"bias_initializer": {"config": {}, "class_name": "Zeros"}, "kernel_constraint": null, "dtype": "float32", "strides": [1, 1], "bias_constraint": null, "trainable": true, "kernel_regularizer": null, "activity_regularizer": null, "name": "block_4_expand", "use_bias": false, "kernel_size": [1, 1], "dilation_rate": [1, 1], "padding": "same", "kernel_initializer": {"config": {"seed": null, "scale": 1.0, "mode": "fan_avg", "distribution": "uniform"}, "class_name": "VarianceScaling"}, "bias_regularizer": null, "data_format": "channels_last", "activation": "linear", "filters": 192}, "class_name": "Conv2D", "inbound_nodes": [[["block_3_project_BN", 0, 0, {}]]]}, {"name": "block_4_expand_BN", "config": {"scale": true, "beta_regularizer": null, "gamma_regularizer": null, "dtype": "float32", "beta_initializer": {"config": {}, "class_name": "Zeros"}, "center": true, "momentum": 0.999, "moving_mean_initializer": {"config": {}, "class_name": "Zeros"}, "trainable": true, "gamma_constraint": null, "name": "block_4_expand_BN", "moving_variance_initializer": {"config": {}, "class_name": "Ones"}, "gamma_initializer": {"config": {}, "class_name": "Ones"}, "axis": -1, "beta_constraint": null, "epsilon": 0.001}, "class_name": "BatchNormalization", "inbound_nodes": [[["block_4_expand", 0, 0, {}]]]}, {"name": "block_4_expand_relu", "config": {"name": "block_4_expand_relu", "threshold": 0.0, "negative_slope": 0.0, "dtype": "float32", "trainable": true, "max_value": 6.0}, "class_name": "ReLU", "inbound_nodes": [[["block_4_expand_BN", 0, 0, {}]]]}, {"name": "block_4_depthwise", "config": {"bias_initializer": {"config": {}, "class_name": "Zeros"}, "trainable": true, "dtype": "float32", "depth_multiplier": 1, "strides": [1, 1], "bias_constraint": null, "data_format": "channels_last", "depthwise_constraint": null, "activity_regularizer": null, "name": "block_4_depthwise", "use_bias": false, "kernel_size": [3, 3], "dilation_rate": [1, 1], "padding": "same", "depthwise_initializer": {"config": {"seed": null, "scale": 1.0, "mode": "fan_avg", "distribution": "uniform"}, "class_name": "VarianceScaling"}, "bias_regularizer": null, "depthwise_regularizer": null, "activation": "linear"}, "class_name": "DepthwiseConv2D", "inbound_nodes": [[["block_4_expand_relu", 0, 0, {}]]]}, {"name": "block_4_depthwise_BN", "config": {"scale": true, "beta_regularizer": null, "gamma_regularizer": null, "dtype": "float32", "beta_initializer": {"config": {}, "class_name": "Zeros"}, "center": true, "momentum": 0.999, "moving_mean_initializer": {"config": {}, "class_name": "Zeros"}, "trainable": true, "gamma_constraint": null, "name": "block_4_depthwise_BN", "moving_variance_initializer": {"config": {}, "class_name": "Ones"}, "gamma_initializer": {"config": {}, "class_name": "Ones"}, "axis": -1, "beta_constraint": null, "epsilon": 0.001}, "class_name": "BatchNormalization", "inbound_nodes": [[["block_4_depthwise", 0, 0, {}]]]}, {"name": "block_4_depthwise_relu", "config": {"name": "block_4_depthwise_relu", "threshold": 0.0, "negative_slope": 0.0, "dtype": "float32", "trainable": true, "max_value": 6.0}, "class_name": "ReLU", "inbound_nodes": [[["block_4_depthwise_BN", 0, 0, {}]]]}, {"name": "block_4_project", "config": {"bias_initializer": {"config": {}, "class_name": "Zeros"}, "kernel_constraint": null, "dtype": "float32", "strides": [1, 1], "bias_constraint": null, "trainable": true, "kernel_regularizer": null, "activity_regularizer": null, "name": "block_4_project", "use_bias": false, "kernel_size": [1, 1], "dilation_rate": [1, 1], "padding": "same", "kernel_initializer": {"config": {"seed": null, "scale": 1.0, "mode": "fan_avg", "distribution": "uniform"}, "class_name": "VarianceScaling"}, "bias_regularizer": null, "data_format": "channels_last", "activation": "linear", "filters": 32}, "class_name": "Conv2D", "inbound_nodes": [[["block_4_depthwise_relu", 0, 0, {}]]]}, {"name": "block_4_project_BN", "config": {"scale": true, "beta_regularizer": null, "gamma_regularizer": null, "dtype": "float32", "beta_initializer": {"config": {}, "class_name": "Zeros"}, "center": true, "momentum": 0.999, "moving_mean_initializer": {"config": {}, "class_name": "Zeros"}, "trainable": true, "gamma_constraint": null, "name": "block_4_project_BN", "moving_variance_initializer": {"config": {}, "class_name": "Ones"}, "gamma_initializer": {"config": {}, "class_name": "Ones"}, "axis": -1, "beta_constraint": null, "epsilon": 0.001}, "class_name": "BatchNormalization", "inbound_nodes": [[["block_4_project", 0, 0, {}]]]}, {"name": "block_4_add", "config": {"name": "block_4_add", "trainable": true, "dtype": "float32"}, "class_name": "Add", "inbound_nodes": [[["block_3_project_BN", 0, 0, {}], ["block_4_project_BN", 0, 0, {}]]]}, {"name": "block_5_expand", "config": {"bias_initializer": {"config": {}, "class_name": "Zeros"}, "kernel_constraint": null, "dtype": "float32", "strides": [1, 1], "bias_constraint": null, "trainable": true, "kernel_regularizer": null, "activity_regularizer": null, "name": "block_5_expand", "use_bias": false, "kernel_size": [1, 1], "dilation_rate": [1, 1], "padding": "same", "kernel_initializer": {"config": {"seed": null, "scale": 1.0, "mode": "fan_avg", "distribution": "uniform"}, "class_name": "VarianceScaling"}, "bias_regularizer": null, "data_format": "channels_last", "activation": "linear", "filters": 192}, "class_name": "Conv2D", "inbound_nodes": [[["block_4_add", 0, 0, {}]]]}, {"name": "block_5_expand_BN", "config": {"scale": true, "beta_regularizer": null, "gamma_regularizer": null, "dtype": "float32", "beta_initializer": {"config": {}, "class_name": "Zeros"}, "center": true, "momentum": 0.999, "moving_mean_initializer": {"config": {}, "class_name": "Zeros"}, "trainable": true, "gamma_constraint": null, "name": "block_5_expand_BN", "moving_variance_initializer": {"config": {}, "class_name": "Ones"}, "gamma_initializer": {"config": {}, "class_name": "Ones"}, "axis": -1, "beta_constraint": null, "epsilon": 0.001}, "class_name": "BatchNormalization", "inbound_nodes": [[["block_5_expand", 0, 0, {}]]]}, {"name": "block_5_expand_relu", "config": {"name": "block_5_expand_relu", "threshold": 0.0, "negative_slope": 0.0, "dtype": "float32", "trainable": true, "max_value": 6.0}, "class_name": "ReLU", "inbound_nodes": [[["block_5_expand_BN", 0, 0, {}]]]}, {"name": "block_5_depthwise", "config": {"bias_initializer": {"config": {}, "class_name": "Zeros"}, "trainable": true, "dtype": "float32", "depth_multiplier": 1, "strides": [1, 1], "bias_constraint": null, "data_format": "channels_last", "depthwise_constraint": null, "activity_regularizer": null, "name": "block_5_depthwise", "use_bias": false, "kernel_size": [3, 3], "dilation_rate": [1, 1], "padding": "same", "depthwise_initializer": {"config": {"seed": null, "scale": 1.0, "mode": "fan_avg", "distribution": "uniform"}, "class_name": "VarianceScaling"}, "bias_regularizer": null, "depthwise_regularizer": null, "activation": "linear"}, "class_name": "DepthwiseConv2D", "inbound_nodes": [[["block_5_expand_relu", 0, 0, {}]]]}, {"name": "block_5_depthwise_BN", "config": {"scale": true, "beta_regularizer": null, "gamma_regularizer": null, "dtype": "float32", "beta_initializer": {"config": {}, "class_name": "Zeros"}, "center": true, "momentum": 0.999, "moving_mean_initializer": {"config": {}, "class_name": "Zeros"}, "trainable": true, "gamma_constraint": null, "name": "block_5_depthwise_BN", "moving_variance_initializer": {"config": {}, "class_name": "Ones"}, "gamma_initializer": {"config": {}, "class_name": "Ones"}, "axis": -1, "beta_constraint": null, "epsilon": 0.001}, "class_name": "BatchNormalization", "inbound_nodes": [[["block_5_depthwise", 0, 0, {}]]]}, {"name": "block_5_depthwise_relu", "config": {"name": "block_5_depthwise_relu", "threshold": 0.0, "negative_slope": 0.0, "dtype": "float32", "trainable": true, "max_value": 6.0}, "class_name": "ReLU", "inbound_nodes": [[["block_5_depthwise_BN", 0, 0, {}]]]}, {"name": "block_5_project", "config": {"bias_initializer": {"config": {}, "class_name": "Zeros"}, "kernel_constraint": null, "dtype": "float32", "strides": [1, 1], "bias_constraint": null, "trainable": true, "kernel_regularizer": null, "activity_regularizer": null, "name": "block_5_project", "use_bias": false, "kernel_size": [1, 1], "dilation_rate": [1, 1], "padding": "same", "kernel_initializer": {"config": {"seed": null, "scale": 1.0, "mode": "fan_avg", "distribution": "uniform"}, "class_name": "VarianceScaling"}, "bias_regularizer": null, "data_format": "channels_last", "activation": "linear", "filters": 32}, "class_name": "Conv2D", "inbound_nodes": [[["block_5_depthwise_relu", 0, 0, {}]]]}, {"name": "block_5_project_BN", "config": {"scale": true, "beta_regularizer": null, "gamma_regularizer": null, "dtype": "float32", "beta_initializer": {"config": {}, "class_name": "Zeros"}, "center": true, "momentum": 0.999, "moving_mean_initializer": {"config": {}, "class_name": "Zeros"}, "trainable": true, "gamma_constraint": null, "name": "block_5_project_BN", "moving_variance_initializer": {"config": {}, "class_name": "Ones"}, "gamma_initializer": {"config": {}, "class_name": "Ones"}, "axis": -1, "beta_constraint": null, "epsilon": 0.001}, "class_name": "BatchNormalization", "inbound_nodes": [[["block_5_project", 0, 0, {}]]]}, {"name": "block_5_add", "config": {"name": "block_5_add", "trainable": true, "dtype": "float32"}, "class_name": "Add", "inbound_nodes": [[["block_4_add", 0, 0, {}], ["block_5_project_BN", 0, 0, {}]]]}, {"name": "block_6_expand", "config": {"bias_initializer": {"config": {}, "class_name": "Zeros"}, "kernel_constraint": null, "dtype": "float32", "strides": [1, 1], "bias_constraint": null, "trainable": true, "kernel_regularizer": null, "activity_regularizer": null, "name": "block_6_expand", "use_bias": false, "kernel_size": [1, 1], "dilation_rate": [1, 1], "padding": "same", "kernel_initializer": {"config": {"seed": null, "scale": 1.0, "mode": "fan_avg", "distribution": "uniform"}, "class_name": "VarianceScaling"}, "bias_regularizer": null, "data_format": "channels_last", "activation": "linear", "filters": 192}, "class_name": "Conv2D", "inbound_nodes": [[["block_5_add", 0, 0, {}]]]}, {"name": "block_6_expand_BN", "config": {"scale": true, "beta_regularizer": null, "gamma_regularizer": null, "dtype": "float32", "beta_initializer": {"config": {}, "class_name": "Zeros"}, "center": true, "momentum": 0.999, "moving_mean_initializer": {"config": {}, "class_name": "Zeros"}, "trainable": true, "gamma_constraint": null, "name": "block_6_expand_BN", "moving_variance_initializer": {"config": {}, "class_name": "Ones"}, "gamma_initializer": {"config": {}, "class_name": "Ones"}, "axis": -1, "beta_constraint": null, "epsilon": 0.001}, "class_name": "BatchNormalization", "inbound_nodes": [[["block_6_expand", 0, 0, {}]]]}, {"name": "block_6_expand_relu", "config": {"name": "block_6_expand_relu", "threshold": 0.0, "negative_slope": 0.0, "dtype": "float32", "trainable": true, "max_value": 6.0}, "class_name": "ReLU", "inbound_nodes": [[["block_6_expand_BN", 0, 0, {}]]]}, {"name": "block_6_pad", "config": {"name": "block_6_pad", "data_format": "channels_last", "trainable": true, "dtype": "float32", "padding": [[0, 1], [0, 1]]}, "class_name": "ZeroPadding2D", "inbound_nodes": [[["block_6_expand_relu", 0, 0, {}]]]}, {"name": "block_6_depthwise", "config": {"bias_initializer": {"config": {}, "class_name": "Zeros"}, "trainable": true, "dtype": "float32", "depth_multiplier": 1, "strides": [2, 2], "bias_constraint": null, "data_format": "channels_last", "depthwise_constraint": null, "activity_regularizer": null, "name": "block_6_depthwise", "use_bias": false, "kernel_size": [3, 3], "dilation_rate": [1, 1], "padding": "valid", "depthwise_initializer": {"config": {"seed": null, "scale": 1.0, "mode": "fan_avg", "distribution": "uniform"}, "class_name": "VarianceScaling"}, "bias_regularizer": null, "depthwise_regularizer": null, "activation": "linear"}, "class_name": "DepthwiseConv2D", "inbound_nodes": [[["block_6_pad", 0, 0, {}]]]}, {"name": "block_6_depthwise_BN", "config": {"scale": true, "beta_regularizer": null, "gamma_regularizer": null, "dtype": "float32", "beta_initializer": {"config": {}, "class_name": "Zeros"}, "center": true, "momentum": 0.999, "moving_mean_initializer": {"config": {}, "class_name": "Zeros"}, "trainable": true, "gamma_constraint": null, "name": "block_6_depthwise_BN", "moving_variance_initializer": {"config": {}, "class_name": "Ones"}, "gamma_initializer": {"config": {}, "class_name": "Ones"}, "axis": -1, "beta_constraint": null, "epsilon": 0.001}, "class_name": "BatchNormalization", "inbound_nodes": [[["block_6_depthwise", 0, 0, {}]]]}, {"name": "block_6_depthwise_relu", "config": {"name": "block_6_depthwise_relu", "threshold": 0.0, "negative_slope": 0.0, "dtype": "float32", "trainable": true, "max_value": 6.0}, "class_name": "ReLU", "inbound_nodes": [[["block_6_depthwise_BN", 0, 0, {}]]]}, {"name": "block_6_project", "config": {"bias_initializer": {"config": {}, "class_name": "Zeros"}, "kernel_constraint": null, "dtype": "float32", "strides": [1, 1], "bias_constraint": null, "trainable": true, "kernel_regularizer": null, "activity_regularizer": null, "name": "block_6_project", "use_bias": false, "kernel_size": [1, 1], "dilation_rate": [1, 1], "padding": "same", "kernel_initializer": {"config": {"seed": null, "scale": 1.0, "mode": "fan_avg", "distribution": "uniform"}, "class_name": "VarianceScaling"}, "bias_regularizer": null, "data_format": "channels_last", "activation": "linear", "filters": 64}, "class_name": "Conv2D", "inbound_nodes": [[["block_6_depthwise_relu", 0, 0, {}]]]}, {"name": "block_6_project_BN", "config": {"scale": true, "beta_regularizer": null, "gamma_regularizer": null, "dtype": "float32", "beta_initializer": {"config": {}, "class_name": "Zeros"}, "center": true, "momentum": 0.999, "moving_mean_initializer": {"config": {}, "class_name": "Zeros"}, "trainable": true, "gamma_constraint": null, "name": "block_6_project_BN", "moving_variance_initializer": {"config": {}, "class_name": "Ones"}, "gamma_initializer": {"config": {}, "class_name": "Ones"}, "axis": -1, "beta_constraint": null, "epsilon": 0.001}, "class_name": "BatchNormalization", "inbound_nodes": [[["block_6_project", 0, 0, {}]]]}, {"name": "block_7_expand", "config": {"bias_initializer": {"config": {}, "class_name": "Zeros"}, "kernel_constraint": null, "dtype": "float32", "strides": [1, 1], "bias_constraint": null, "trainable": true, "kernel_regularizer": null, "activity_regularizer": null, "name": "block_7_expand", "use_bias": false, "kernel_size": [1, 1], "dilation_rate": [1, 1], "padding": "same", "kernel_initializer": {"config": {"seed": null, "scale": 1.0, "mode": "fan_avg", "distribution": "uniform"}, "class_name": "VarianceScaling"}, "bias_regularizer": null, "data_format": "channels_last", "activation": "linear", "filters": 384}, "class_name": "Conv2D", "inbound_nodes": [[["block_6_project_BN", 0, 0, {}]]]}, {"name": "block_7_expand_BN", "config": {"scale": true, "beta_regularizer": null, "gamma_regularizer": null, "dtype": "float32", "beta_initializer": {"config": {}, "class_name": "Zeros"}, "center": true, "momentum": 0.999, "moving_mean_initializer": {"config": {}, "class_name": "Zeros"}, "trainable": true, "gamma_constraint": null, "name": "block_7_expand_BN", "moving_variance_initializer": {"config": {}, "class_name": "Ones"}, "gamma_initializer": {"config": {}, "class_name": "Ones"}, "axis": -1, "beta_constraint": null, "epsilon": 0.001}, "class_name": "BatchNormalization", "inbound_nodes": [[["block_7_expand", 0, 0, {}]]]}, {"name": "block_7_expand_relu", "config": {"name": "block_7_expand_relu", "threshold": 0.0, "negative_slope": 0.0, "dtype": "float32", "trainable": true, "max_value": 6.0}, "class_name": "ReLU", "inbound_nodes": [[["block_7_expand_BN", 0, 0, {}]]]}, {"name": "block_7_depthwise", "config": {"bias_initializer": {"config": {}, "class_name": "Zeros"}, "trainable": true, "dtype": "float32", "depth_multiplier": 1, "strides": [1, 1], "bias_constraint": null, "data_format": "channels_last", "depthwise_constraint": null, "activity_regularizer": null, "name": "block_7_depthwise", "use_bias": false, "kernel_size": [3, 3], "dilation_rate": [1, 1], "padding": "same", "depthwise_initializer": {"config": {"seed": null, "scale": 1.0, "mode": "fan_avg", "distribution": "uniform"}, "class_name": "VarianceScaling"}, "bias_regularizer": null, "depthwise_regularizer": null, "activation": "linear"}, "class_name": "DepthwiseConv2D", "inbound_nodes": [[["block_7_expand_relu", 0, 0, {}]]]}, {"name": "block_7_depthwise_BN", "config": {"scale": true, "beta_regularizer": null, "gamma_regularizer": null, "dtype": "float32", "beta_initializer": {"config": {}, "class_name": "Zeros"}, "center": true, "momentum": 0.999, "moving_mean_initializer": {"config": {}, "class_name": "Zeros"}, "trainable": true, "gamma_constraint": null, "name": "block_7_depthwise_BN", "moving_variance_initializer": {"config": {}, "class_name": "Ones"}, "gamma_initializer": {"config": {}, "class_name": "Ones"}, "axis": -1, "beta_constraint": null, "epsilon": 0.001}, "class_name": "BatchNormalization", "inbound_nodes": [[["block_7_depthwise", 0, 0, {}]]]}, {"name": "block_7_depthwise_relu", "config": {"name": "block_7_depthwise_relu", "threshold": 0.0, "negative_slope": 0.0, "dtype": "float32", "trainable": true, "max_value": 6.0}, "class_name": "ReLU", "inbound_nodes": [[["block_7_depthwise_BN", 0, 0, {}]]]}, {"name": "block_7_project", "config": {"bias_initializer": {"config": {}, "class_name": "Zeros"}, "kernel_constraint": null, "dtype": "float32", "strides": [1, 1], "bias_constraint": null, "trainable": true, "kernel_regularizer": null, "activity_regularizer": null, "name": "block_7_project", "use_bias": false, "kernel_size": [1, 1], "dilation_rate": [1, 1], "padding": "same", "kernel_initializer": {"config": {"seed": null, "scale": 1.0, "mode": "fan_avg", "distribution": "uniform"}, "class_name": "VarianceScaling"}, "bias_regularizer": null, "data_format": "channels_last", "activation": "linear", "filters": 64}, "class_name": "Conv2D", "inbound_nodes": [[["block_7_depthwise_relu", 0, 0, {}]]]}, {"name": "block_7_project_BN", "config": {"scale": true, "beta_regularizer": null, "gamma_regularizer": null, "dtype": "float32", "beta_initializer": {"config": {}, "class_name": "Zeros"}, "center": true, "momentum": 0.999, "moving_mean_initializer": {"config": {}, "class_name": "Zeros"}, "trainable": true, "gamma_constraint": null, "name": "block_7_project_BN", "moving_variance_initializer": {"config": {}, "class_name": "Ones"}, "gamma_initializer": {"config": {}, "class_name": "Ones"}, "axis": -1, "beta_constraint": null, "epsilon": 0.001}, "class_name": "BatchNormalization", "inbound_nodes": [[["block_7_project", 0, 0, {}]]]}, {"name": "block_7_add", "config": {"name": "block_7_add", "trainable": true, "dtype": "float32"}, "class_name": "Add", "inbound_nodes": [[["block_6_project_BN", 0, 0, {}], ["block_7_project_BN", 0, 0, {}]]]}, {"name": "block_8_expand", "config": {"bias_initializer": {"config": {}, "class_name": "Zeros"}, "kernel_constraint": null, "dtype": "float32", "strides": [1, 1], "bias_constraint": null, "trainable": true, "kernel_regularizer": null, "activity_regularizer": null, "name": "block_8_expand", "use_bias": false, "kernel_size": [1, 1], "dilation_rate": [1, 1], "padding": "same", "kernel_initializer": {"config": {"seed": null, "scale": 1.0, "mode": "fan_avg", "distribution": "uniform"}, "class_name": "VarianceScaling"}, "bias_regularizer": null, "data_format": "channels_last", "activation": "linear", "filters": 384}, "class_name": "Conv2D", "inbound_nodes": [[["block_7_add", 0, 0, {}]]]}, {"name": "block_8_expand_BN", "config": {"scale": true, "beta_regularizer": null, "gamma_regularizer": null, "dtype": "float32", "beta_initializer": {"config": {}, "class_name": "Zeros"}, "center": true, "momentum": 0.999, "moving_mean_initializer": {"config": {}, "class_name": "Zeros"}, "trainable": true, "gamma_constraint": null, "name": "block_8_expand_BN", "moving_variance_initializer": {"config": {}, "class_name": "Ones"}, "gamma_initializer": {"config": {}, "class_name": "Ones"}, "axis": -1, "beta_constraint": null, "epsilon": 0.001}, "class_name": "BatchNormalization", "inbound_nodes": [[["block_8_expand", 0, 0, {}]]]}, {"name": "block_8_expand_relu", "config": {"name": "block_8_expand_relu", "threshold": 0.0, "negative_slope": 0.0, "dtype": "float32", "trainable": true, "max_value": 6.0}, "class_name": "ReLU", "inbound_nodes": [[["block_8_expand_BN", 0, 0, {}]]]}, {"name": "block_8_depthwise", "config": {"bias_initializer": {"config": {}, "class_name": "Zeros"}, "trainable": true, "dtype": "float32", "depth_multiplier": 1, "strides": [1, 1], "bias_constraint": null, "data_format": "channels_last", "depthwise_constraint": null, "activity_regularizer": null, "name": "block_8_depthwise", "use_bias": false, "kernel_size": [3, 3], "dilation_rate": [1, 1], "padding": "same", "depthwise_initializer": {"config": {"seed": null, "scale": 1.0, "mode": "fan_avg", "distribution": "uniform"}, "class_name": "VarianceScaling"}, "bias_regularizer": null, "depthwise_regularizer": null, "activation": "linear"}, "class_name": "DepthwiseConv2D", "inbound_nodes": [[["block_8_expand_relu", 0, 0, {}]]]}, {"name": "block_8_depthwise_BN", "config": {"scale": true, "beta_regularizer": null, "gamma_regularizer": null, "dtype": "float32", "beta_initializer": {"config": {}, "class_name": "Zeros"}, "center": true, "momentum": 0.999, "moving_mean_initializer": {"config": {}, "class_name": "Zeros"}, "trainable": true, "gamma_constraint": null, "name": "block_8_depthwise_BN", "moving_variance_initializer": {"config": {}, "class_name": "Ones"}, "gamma_initializer": {"config": {}, "class_name": "Ones"}, "axis": -1, "beta_constraint": null, "epsilon": 0.001}, "class_name": "BatchNormalization", "inbound_nodes": [[["block_8_depthwise", 0, 0, {}]]]}, {"name": "block_8_depthwise_relu", "config": {"name": "block_8_depthwise_relu", "threshold": 0.0, "negative_slope": 0.0, "dtype": "float32", "trainable": true, "max_value": 6.0}, "class_name": "ReLU", "inbound_nodes": [[["block_8_depthwise_BN", 0, 0, {}]]]}, {"name": "block_8_project", "config": {"bias_initializer": {"config": {}, "class_name": "Zeros"}, "kernel_constraint": null, "dtype": "float32", "strides": [1, 1], "bias_constraint": null, "trainable": true, "kernel_regularizer": null, "activity_regularizer": null, "name": "block_8_project", "use_bias": false, "kernel_size": [1, 1], "dilation_rate": [1, 1], "padding": "same", "kernel_initializer": {"config": {"seed": null, "scale": 1.0, "mode": "fan_avg", "distribution": "uniform"}, "class_name": "VarianceScaling"}, "bias_regularizer": null, "data_format": "channels_last", "activation": "linear", "filters": 64}, "class_name": "Conv2D", "inbound_nodes": [[["block_8_depthwise_relu", 0, 0, {}]]]}, {"name": "block_8_project_BN", "config": {"scale": true, "beta_regularizer": null, "gamma_regularizer": null, "dtype": "float32", "beta_initializer": {"config": {}, "class_name": "Zeros"}, "center": true, "momentum": 0.999, "moving_mean_initializer": {"config": {}, "class_name": "Zeros"}, "trainable": true, "gamma_constraint": null, "name": "block_8_project_BN", "moving_variance_initializer": {"config": {}, "class_name": "Ones"}, "gamma_initializer": {"config": {}, "class_name": "Ones"}, "axis": -1, "beta_constraint": null, "epsilon": 0.001}, "class_name": "BatchNormalization", "inbound_nodes": [[["block_8_project", 0, 0, {}]]]}, {"name": "block_8_add", "config": {"name": "block_8_add", "trainable": true, "dtype": "float32"}, "class_name": "Add", "inbound_nodes": [[["block_7_add", 0, 0, {}], ["block_8_project_BN", 0, 0, {}]]]}, {"name": "block_9_expand", "config": {"bias_initializer": {"config": {}, "class_name": "Zeros"}, "kernel_constraint": null, "dtype": "float32", "strides": [1, 1], "bias_constraint": null, "trainable": true, "kernel_regularizer": null, "activity_regularizer": null, "name": "block_9_expand", "use_bias": false, "kernel_size": [1, 1], "dilation_rate": [1, 1], "padding": "same", "kernel_initializer": {"config": {"seed": null, "scale": 1.0, "mode": "fan_avg", "distribution": "uniform"}, "class_name": "VarianceScaling"}, "bias_regularizer": null, "data_format": "channels_last", "activation": "linear", "filters": 384}, "class_name": "Conv2D", "inbound_nodes": [[["block_8_add", 0, 0, {}]]]}, {"name": "block_9_expand_BN", "config": {"scale": true, "beta_regularizer": null, "gamma_regularizer": null, "dtype": "float32", "beta_initializer": {"config": {}, "class_name": "Zeros"}, "center": true, "momentum": 0.999, "moving_mean_initializer": {"config": {}, "class_name": "Zeros"}, "trainable": true, "gamma_constraint": null, "name": "block_9_expand_BN", "moving_variance_initializer": {"config": {}, "class_name": "Ones"}, "gamma_initializer": {"config": {}, "class_name": "Ones"}, "axis": -1, "beta_constraint": null, "epsilon": 0.001}, "class_name": "BatchNormalization", "inbound_nodes": [[["block_9_expand", 0, 0, {}]]]}, {"name": "block_9_expand_relu", "config": {"name": "block_9_expand_relu", "threshold": 0.0, "negative_slope": 0.0, "dtype": "float32", "trainable": true, "max_value": 6.0}, "class_name": "ReLU", "inbound_nodes": [[["block_9_expand_BN", 0, 0, {}]]]}, {"name": "block_9_depthwise", "config": {"bias_initializer": {"config": {}, "class_name": "Zeros"}, "trainable": true, "dtype": "float32", "depth_multiplier": 1, "strides": [1, 1], "bias_constraint": null, "data_format": "channels_last", "depthwise_constraint": null, "activity_regularizer": null, "name": "block_9_depthwise", "use_bias": false, "kernel_size": [3, 3], "dilation_rate": [1, 1], "padding": "same", "depthwise_initializer": {"config": {"seed": null, "scale": 1.0, "mode": "fan_avg", "distribution": "uniform"}, "class_name": "VarianceScaling"}, "bias_regularizer": null, "depthwise_regularizer": null, "activation": "linear"}, "class_name": "DepthwiseConv2D", "inbound_nodes": [[["block_9_expand_relu", 0, 0, {}]]]}, {"name": "block_9_depthwise_BN", "config": {"scale": true, "beta_regularizer": null, "gamma_regularizer": null, "dtype": "float32", "beta_initializer": {"config": {}, "class_name": "Zeros"}, "center": true, "momentum": 0.999, "moving_mean_initializer": {"config": {}, "class_name": "Zeros"}, "trainable": true, "gamma_constraint": null, "name": "block_9_depthwise_BN", "moving_variance_initializer": {"config": {}, "class_name": "Ones"}, "gamma_initializer": {"config": {}, "class_name": "Ones"}, "axis": -1, "beta_constraint": null, "epsilon": 0.001}, "class_name": "BatchNormalization", "inbound_nodes": [[["block_9_depthwise", 0, 0, {}]]]}, {"name": "block_9_depthwise_relu", "config": {"name": "block_9_depthwise_relu", "threshold": 0.0, "negative_slope": 0.0, "dtype": "float32", "trainable": true, "max_value": 6.0}, "class_name": "ReLU", "inbound_nodes": [[["block_9_depthwise_BN", 0, 0, {}]]]}, {"name": "block_9_project", "config": {"bias_initializer": {"config": {}, "class_name": "Zeros"}, "kernel_constraint": null, "dtype": "float32", "strides": [1, 1], "bias_constraint": null, "trainable": true, "kernel_regularizer": null, "activity_regularizer": null, "name": "block_9_project", "use_bias": false, "kernel_size": [1, 1], "dilation_rate": [1, 1], "padding": "same", "kernel_initializer": {"config": {"seed": null, "scale": 1.0, "mode": "fan_avg", "distribution": "uniform"}, "class_name": "VarianceScaling"}, "bias_regularizer": null, "data_format": "channels_last", "activation": "linear", "filters": 64}, "class_name": "Conv2D", "inbound_nodes": [[["block_9_depthwise_relu", 0, 0, {}]]]}, {"name": "block_9_project_BN", "config": {"scale": true, "beta_regularizer": null, "gamma_regularizer": null, "dtype": "float32", "beta_initializer": {"config": {}, "class_name": "Zeros"}, "center": true, "momentum": 0.999, "moving_mean_initializer": {"config": {}, "class_name": "Zeros"}, "trainable": true, "gamma_constraint": null, "name": "block_9_project_BN", "moving_variance_initializer": {"config": {}, "class_name": "Ones"}, "gamma_initializer": {"config": {}, "class_name": "Ones"}, "axis": -1, "beta_constraint": null, "epsilon": 0.001}, "class_name": "BatchNormalization", "inbound_nodes": [[["block_9_project", 0, 0, {}]]]}, {"name": "block_9_add", "config": {"name": "block_9_add", "trainable": true, "dtype": "float32"}, "class_name": "Add", "inbound_nodes": [[["block_8_add", 0, 0, {}], ["block_9_project_BN", 0, 0, {}]]]}, {"name": "block_10_expand", "config": {"bias_initializer": {"config": {}, "class_name": "Zeros"}, "kernel_constraint": null, "dtype": "float32", "strides": [1, 1], "bias_constraint": null, "trainable": true, "kernel_regularizer": null, "activity_regularizer": null, "name": "block_10_expand", "use_bias": false, "kernel_size": [1, 1], "dilation_rate": [1, 1], "padding": "same", "kernel_initializer": {"config": {"seed": null, "scale": 1.0, "mode": "fan_avg", "distribution": "uniform"}, "class_name": "VarianceScaling"}, "bias_regularizer": null, "data_format": "channels_last", "activation": "linear", "filters": 384}, "class_name": "Conv2D", "inbound_nodes": [[["block_9_add", 0, 0, {}]]]}, {"name": "block_10_expand_BN", "config": {"scale": true, "beta_regularizer": null, "gamma_regularizer": null, "dtype": "float32", "beta_initializer": {"config": {}, "class_name": "Zeros"}, "center": true, "momentum": 0.999, "moving_mean_initializer": {"config": {}, "class_name": "Zeros"}, "trainable": true, "gamma_constraint": null, "name": "block_10_expand_BN", "moving_variance_initializer": {"config": {}, "class_name": "Ones"}, "gamma_initializer": {"config": {}, "class_name": "Ones"}, "axis": -1, "beta_constraint": null, "epsilon": 0.001}, "class_name": "BatchNormalization", "inbound_nodes": [[["block_10_expand", 0, 0, {}]]]}, {"name": "block_10_expand_relu", "config": {"name": "block_10_expand_relu", "threshold": 0.0, "negative_slope": 0.0, "dtype": "float32", "trainable": true, "max_value": 6.0}, "class_name": "ReLU", "inbound_nodes": [[["block_10_expand_BN", 0, 0, {}]]]}, {"name": "block_10_depthwise", "config": {"bias_initializer": {"config": {}, "class_name": "Zeros"}, "trainable": true, "dtype": "float32", "depth_multiplier": 1, "strides": [1, 1], "bias_constraint": null, "data_format": "channels_last", "depthwise_constraint": null, "activity_regularizer": null, "name": "block_10_depthwise", "use_bias": false, "kernel_size": [3, 3], "dilation_rate": [1, 1], "padding": "same", "depthwise_initializer": {"config": {"seed": null, "scale": 1.0, "mode": "fan_avg", "distribution": "uniform"}, "class_name": "VarianceScaling"}, "bias_regularizer": null, "depthwise_regularizer": null, "activation": "linear"}, "class_name": "DepthwiseConv2D", "inbound_nodes": [[["block_10_expand_relu", 0, 0, {}]]]}, {"name": "block_10_depthwise_BN", "config": {"scale": true, "beta_regularizer": null, "gamma_regularizer": null, "dtype": "float32", "beta_initializer": {"config": {}, "class_name": "Zeros"}, "center": true, "momentum": 0.999, "moving_mean_initializer": {"config": {}, "class_name": "Zeros"}, "trainable": true, "gamma_constraint": null, "name": "block_10_depthwise_BN", "moving_variance_initializer": {"config": {}, "class_name": "Ones"}, "gamma_initializer": {"config": {}, "class_name": "Ones"}, "axis": -1, "beta_constraint": null, "epsilon": 0.001}, "class_name": "BatchNormalization", "inbound_nodes": [[["block_10_depthwise", 0, 0, {}]]]}, {"name": "block_10_depthwise_relu", "config": {"name": "block_10_depthwise_relu", "threshold": 0.0, "negative_slope": 0.0, "dtype": "float32", "trainable": true, "max_value": 6.0}, "class_name": "ReLU", "inbound_nodes": [[["block_10_depthwise_BN", 0, 0, {}]]]}, {"name": "block_10_project", "config": {"bias_initializer": {"config": {}, "class_name": "Zeros"}, "kernel_constraint": null, "dtype": "float32", "strides": [1, 1], "bias_constraint": null, "trainable": true, "kernel_regularizer": null, "activity_regularizer": null, "name": "block_10_project", "use_bias": false, "kernel_size": [1, 1], "dilation_rate": [1, 1], "padding": "same", "kernel_initializer": {"config": {"seed": null, "scale": 1.0, "mode": "fan_avg", "distribution": "uniform"}, "class_name": "VarianceScaling"}, "bias_regularizer": null, "data_format": "channels_last", "activation": "linear", "filters": 96}, "class_name": "Conv2D", "inbound_nodes": [[["block_10_depthwise_relu", 0, 0, {}]]]}, {"name": "block_10_project_BN", "config": {"scale": true, "beta_regularizer": null, "gamma_regularizer": null, "dtype": "float32", "beta_initializer": {"config": {}, "class_name": "Zeros"}, "center": true, "momentum": 0.999, "moving_mean_initializer": {"config": {}, "class_name": "Zeros"}, "trainable": true, "gamma_constraint": null, "name": "block_10_project_BN", "moving_variance_initializer": {"config": {}, "class_name": "Ones"}, "gamma_initializer": {"config": {}, "class_name": "Ones"}, "axis": -1, "beta_constraint": null, "epsilon": 0.001}, "class_name": "BatchNormalization", "inbound_nodes": [[["block_10_project", 0, 0, {}]]]}, {"name": "block_11_expand", "config": {"bias_initializer": {"config": {}, "class_name": "Zeros"}, "kernel_constraint": null, "dtype": "float32", "strides": [1, 1], "bias_constraint": null, "trainable": true, "kernel_regularizer": null, "activity_regularizer": null, "name": "block_11_expand", "use_bias": false, "kernel_size": [1, 1], "dilation_rate": [1, 1], "padding": "same", "kernel_initializer": {"config": {"seed": null, "scale": 1.0, "mode": "fan_avg", "distribution": "uniform"}, "class_name": "VarianceScaling"}, "bias_regularizer": null, "data_format": "channels_last", "activation": "linear", "filters": 576}, "class_name": "Conv2D", "inbound_nodes": [[["block_10_project_BN", 0, 0, {}]]]}, {"name": "block_11_expand_BN", "config": {"scale": true, "beta_regularizer": null, "gamma_regularizer": null, "dtype": "float32", "beta_initializer": {"config": {}, "class_name": "Zeros"}, "center": true, "momentum": 0.999, "moving_mean_initializer": {"config": {}, "class_name": "Zeros"}, "trainable": true, "gamma_constraint": null, "name": "block_11_expand_BN", "moving_variance_initializer": {"config": {}, "class_name": "Ones"}, "gamma_initializer": {"config": {}, "class_name": "Ones"}, "axis": -1, "beta_constraint": null, "epsilon": 0.001}, "class_name": "BatchNormalization", "inbound_nodes": [[["block_11_expand", 0, 0, {}]]]}, {"name": "block_11_expand_relu", "config": {"name": "block_11_expand_relu", "threshold": 0.0, "negative_slope": 0.0, "dtype": "float32", "trainable": true, "max_value": 6.0}, "class_name": "ReLU", "inbound_nodes": [[["block_11_expand_BN", 0, 0, {}]]]}, {"name": "block_11_depthwise", "config": {"bias_initializer": {"config": {}, "class_name": "Zeros"}, "trainable": true, "dtype": "float32", "depth_multiplier": 1, "strides": [1, 1], "bias_constraint": null, "data_format": "channels_last", "depthwise_constraint": null, "activity_regularizer": null, "name": "block_11_depthwise", "use_bias": false, "kernel_size": [3, 3], "dilation_rate": [1, 1], "padding": "same", "depthwise_initializer": {"config": {"seed": null, "scale": 1.0, "mode": "fan_avg", "distribution": "uniform"}, "class_name": "VarianceScaling"}, "bias_regularizer": null, "depthwise_regularizer": null, "activation": "linear"}, "class_name": "DepthwiseConv2D", "inbound_nodes": [[["block_11_expand_relu", 0, 0, {}]]]}, {"name": "block_11_depthwise_BN", "config": {"scale": true, "beta_regularizer": null, "gamma_regularizer": null, "dtype": "float32", "beta_initializer": {"config": {}, "class_name": "Zeros"}, "center": true, "momentum": 0.999, "moving_mean_initializer": {"config": {}, "class_name": "Zeros"}, "trainable": true, "gamma_constraint": null, "name": "block_11_depthwise_BN", "moving_variance_initializer": {"config": {}, "class_name": "Ones"}, "gamma_initializer": {"config": {}, "class_name": "Ones"}, "axis": -1, "beta_constraint": null, "epsilon": 0.001}, "class_name": "BatchNormalization", "inbound_nodes": [[["block_11_depthwise", 0, 0, {}]]]}, {"name": "block_11_depthwise_relu", "config": {"name": "block_11_depthwise_relu", "threshold": 0.0, "negative_slope": 0.0, "dtype": "float32", "trainable": true, "max_value": 6.0}, "class_name": "ReLU", "inbound_nodes": [[["block_11_depthwise_BN", 0, 0, {}]]]}, {"name": "block_11_project", "config": {"bias_initializer": {"config": {}, "class_name": "Zeros"}, "kernel_constraint": null, "dtype": "float32", "strides": [1, 1], "bias_constraint": null, "trainable": true, "kernel_regularizer": null, "activity_regularizer": null, "name": "block_11_project", "use_bias": false, "kernel_size": [1, 1], "dilation_rate": [1, 1], "padding": "same", "kernel_initializer": {"config": {"seed": null, "scale": 1.0, "mode": "fan_avg", "distribution": "uniform"}, "class_name": "VarianceScaling"}, "bias_regularizer": null, "data_format": "channels_last", "activation": "linear", "filters": 96}, "class_name": "Conv2D", "inbound_nodes": [[["block_11_depthwise_relu", 0, 0, {}]]]}, {"name": "block_11_project_BN", "config": {"scale": true, "beta_regularizer": null, "gamma_regularizer": null, "dtype": "float32", "beta_initializer": {"config": {}, "class_name": "Zeros"}, "center": true, "momentum": 0.999, "moving_mean_initializer": {"config": {}, "class_name": "Zeros"}, "trainable": true, "gamma_constraint": null, "name": "block_11_project_BN", "moving_variance_initializer": {"config": {}, "class_name": "Ones"}, "gamma_initializer": {"config": {}, "class_name": "Ones"}, "axis": -1, "beta_constraint": null, "epsilon": 0.001}, "class_name": "BatchNormalization", "inbound_nodes": [[["block_11_project", 0, 0, {}]]]}, {"name": "block_11_add", "config": {"name": "block_11_add", "trainable": true, "dtype": "float32"}, "class_name": "Add", "inbound_nodes": [[["block_10_project_BN", 0, 0, {}], ["block_11_project_BN", 0, 0, {}]]]}, {"name": "block_12_expand", "config": {"bias_initializer": {"config": {}, "class_name": "Zeros"}, "kernel_constraint": null, "dtype": "float32", "strides": [1, 1], "bias_constraint": null, "trainable": true, "kernel_regularizer": null, "activity_regularizer": null, "name": "block_12_expand", "use_bias": false, "kernel_size": [1, 1], "dilation_rate": [1, 1], "padding": "same", "kernel_initializer": {"config": {"seed": null, "scale": 1.0, "mode": "fan_avg", "distribution": "uniform"}, "class_name": "VarianceScaling"}, "bias_regularizer": null, "data_format": "channels_last", "activation": "linear", "filters": 576}, "class_name": "Conv2D", "inbound_nodes": [[["block_11_add", 0, 0, {}]]]}, {"name": "block_12_expand_BN", "config": {"scale": true, "beta_regularizer": null, "gamma_regularizer": null, "dtype": "float32", "beta_initializer": {"config": {}, "class_name": "Zeros"}, "center": true, "momentum": 0.999, "moving_mean_initializer": {"config": {}, "class_name": "Zeros"}, "trainable": true, "gamma_constraint": null, "name": "block_12_expand_BN", "moving_variance_initializer": {"config": {}, "class_name": "Ones"}, "gamma_initializer": {"config": {}, "class_name": "Ones"}, "axis": -1, "beta_constraint": null, "epsilon": 0.001}, "class_name": "BatchNormalization", "inbound_nodes": [[["block_12_expand", 0, 0, {}]]]}, {"name": "block_12_expand_relu", "config": {"name": "block_12_expand_relu", "threshold": 0.0, "negative_slope": 0.0, "dtype": "float32", "trainable": true, "max_value": 6.0}, "class_name": "ReLU", "inbound_nodes": [[["block_12_expand_BN", 0, 0, {}]]]}, {"name": "block_12_depthwise", "config": {"bias_initializer": {"config": {}, "class_name": "Zeros"}, "trainable": true, "dtype": "float32", "depth_multiplier": 1, "strides": [1, 1], "bias_constraint": null, "data_format": "channels_last", "depthwise_constraint": null, "activity_regularizer": null, "name": "block_12_depthwise", "use_bias": false, "kernel_size": [3, 3], "dilation_rate": [1, 1], "padding": "same", "depthwise_initializer": {"config": {"seed": null, "scale": 1.0, "mode": "fan_avg", "distribution": "uniform"}, "class_name": "VarianceScaling"}, "bias_regularizer": null, "depthwise_regularizer": null, "activation": "linear"}, "class_name": "DepthwiseConv2D", "inbound_nodes": [[["block_12_expand_relu", 0, 0, {}]]]}, {"name": "block_12_depthwise_BN", "config": {"scale": true, "beta_regularizer": null, "gamma_regularizer": null, "dtype": "float32", "beta_initializer": {"config": {}, "class_name": "Zeros"}, "center": true, "momentum": 0.999, "moving_mean_initializer": {"config": {}, "class_name": "Zeros"}, "trainable": true, "gamma_constraint": null, "name": "block_12_depthwise_BN", "moving_variance_initializer": {"config": {}, "class_name": "Ones"}, "gamma_initializer": {"config": {}, "class_name": "Ones"}, "axis": -1, "beta_constraint": null, "epsilon": 0.001}, "class_name": "BatchNormalization", "inbound_nodes": [[["block_12_depthwise", 0, 0, {}]]]}, {"name": "block_12_depthwise_relu", "config": {"name": "block_12_depthwise_relu", "threshold": 0.0, "negative_slope": 0.0, "dtype": "float32", "trainable": true, "max_value": 6.0}, "class_name": "ReLU", "inbound_nodes": [[["block_12_depthwise_BN", 0, 0, {}]]]}, {"name": "block_12_project", "config": {"bias_initializer": {"config": {}, "class_name": "Zeros"}, "kernel_constraint": null, "dtype": "float32", "strides": [1, 1], "bias_constraint": null, "trainable": true, "kernel_regularizer": null, "activity_regularizer": null, "name": "block_12_project", "use_bias": false, "kernel_size": [1, 1], "dilation_rate": [1, 1], "padding": "same", "kernel_initializer": {"config": {"seed": null, "scale": 1.0, "mode": "fan_avg", "distribution": "uniform"}, "class_name": "VarianceScaling"}, "bias_regularizer": null, "data_format": "channels_last", "activation": "linear", "filters": 96}, "class_name": "Conv2D", "inbound_nodes": [[["block_12_depthwise_relu", 0, 0, {}]]]}, {"name": "block_12_project_BN", "config": {"scale": true, "beta_regularizer": null, "gamma_regularizer": null, "dtype": "float32", "beta_initializer": {"config": {}, "class_name": "Zeros"}, "center": true, "momentum": 0.999, "moving_mean_initializer": {"config": {}, "class_name": "Zeros"}, "trainable": true, "gamma_constraint": null, "name": "block_12_project_BN", "moving_variance_initializer": {"config": {}, "class_name": "Ones"}, "gamma_initializer": {"config": {}, "class_name": "Ones"}, "axis": -1, "beta_constraint": null, "epsilon": 0.001}, "class_name": "BatchNormalization", "inbound_nodes": [[["block_12_project", 0, 0, {}]]]}, {"name": "block_12_add", "config": {"name": "block_12_add", "trainable": true, "dtype": "float32"}, "class_name": "Add", "inbound_nodes": [[["block_11_add", 0, 0, {}], ["block_12_project_BN", 0, 0, {}]]]}, {"name": "block_13_expand", "config": {"bias_initializer": {"config": {}, "class_name": "Zeros"}, "kernel_constraint": null, "dtype": "float32", "strides": [1, 1], "bias_constraint": null, "trainable": true, "kernel_regularizer": null, "activity_regularizer": null, "name": "block_13_expand", "use_bias": false, "kernel_size": [1, 1], "dilation_rate": [1, 1], "padding": "same", "kernel_initializer": {"config": {"seed": null, "scale": 1.0, "mode": "fan_avg", "distribution": "uniform"}, "class_name": "VarianceScaling"}, "bias_regularizer": null, "data_format": "channels_last", "activation": "linear", "filters": 576}, "class_name": "Conv2D", "inbound_nodes": [[["block_12_add", 0, 0, {}]]]}, {"name": "block_13_expand_BN", "config": {"scale": true, "beta_regularizer": null, "gamma_regularizer": null, "dtype": "float32", "beta_initializer": {"config": {}, "class_name": "Zeros"}, "center": true, "momentum": 0.999, "moving_mean_initializer": {"config": {}, "class_name": "Zeros"}, "trainable": true, "gamma_constraint": null, "name": "block_13_expand_BN", "moving_variance_initializer": {"config": {}, "class_name": "Ones"}, "gamma_initializer": {"config": {}, "class_name": "Ones"}, "axis": -1, "beta_constraint": null, "epsilon": 0.001}, "class_name": "BatchNormalization", "inbound_nodes": [[["block_13_expand", 0, 0, {}]]]}, {"name": "block_13_expand_relu", "config": {"name": "block_13_expand_relu", "threshold": 0.0, "negative_slope": 0.0, "dtype": "float32", "trainable": true, "max_value": 6.0}, "class_name": "ReLU", "inbound_nodes": [[["block_13_expand_BN", 0, 0, {}]]]}, {"name": "block_13_pad", "config": {"name": "block_13_pad", "data_format": "channels_last", "trainable": true, "dtype": "float32", "padding": [[0, 1], [0, 1]]}, "class_name": "ZeroPadding2D", "inbound_nodes": [[["block_13_expand_relu", 0, 0, {}]]]}, {"name": "block_13_depthwise", "config": {"bias_initializer": {"config": {}, "class_name": "Zeros"}, "trainable": true, "dtype": "float32", "depth_multiplier": 1, "strides": [2, 2], "bias_constraint": null, "data_format": "channels_last", "depthwise_constraint": null, "activity_regularizer": null, "name": "block_13_depthwise", "use_bias": false, "kernel_size": [3, 3], "dilation_rate": [1, 1], "padding": "valid", "depthwise_initializer": {"config": {"seed": null, "scale": 1.0, "mode": "fan_avg", "distribution": "uniform"}, "class_name": "VarianceScaling"}, "bias_regularizer": null, "depthwise_regularizer": null, "activation": "linear"}, "class_name": "DepthwiseConv2D", "inbound_nodes": [[["block_13_pad", 0, 0, {}]]]}, {"name": "block_13_depthwise_BN", "config": {"scale": true, "beta_regularizer": null, "gamma_regularizer": null, "dtype": "float32", "beta_initializer": {"config": {}, "class_name": "Zeros"}, "center": true, "momentum": 0.999, "moving_mean_initializer": {"config": {}, "class_name": "Zeros"}, "trainable": true, "gamma_constraint": null, "name": "block_13_depthwise_BN", "moving_variance_initializer": {"config": {}, "class_name": "Ones"}, "gamma_initializer": {"config": {}, "class_name": "Ones"}, "axis": -1, "beta_constraint": null, "epsilon": 0.001}, "class_name": "BatchNormalization", "inbound_nodes": [[["block_13_depthwise", 0, 0, {}]]]}, {"name": "block_13_depthwise_relu", "config": {"name": "block_13_depthwise_relu", "threshold": 0.0, "negative_slope": 0.0, "dtype": "float32", "trainable": true, "max_value": 6.0}, "class_name": "ReLU", "inbound_nodes": [[["block_13_depthwise_BN", 0, 0, {}]]]}, {"name": "block_13_project", "config": {"bias_initializer": {"config": {}, "class_name": "Zeros"}, "kernel_constraint": null, "dtype": "float32", "strides": [1, 1], "bias_constraint": null, "trainable": true, "kernel_regularizer": null, "activity_regularizer": null, "name": "block_13_project", "use_bias": false, "kernel_size": [1, 1], "dilation_rate": [1, 1], "padding": "same", "kernel_initializer": {"config": {"seed": null, "scale": 1.0, "mode": "fan_avg", "distribution": "uniform"}, "class_name": "VarianceScaling"}, "bias_regularizer": null, "data_format": "channels_last", "activation": "linear", "filters": 160}, "class_name": "Conv2D", "inbound_nodes": [[["block_13_depthwise_relu", 0, 0, {}]]]}, {"name": "block_13_project_BN", "config": {"scale": true, "beta_regularizer": null, "gamma_regularizer": null, "dtype": "float32", "beta_initializer": {"config": {}, "class_name": "Zeros"}, "center": true, "momentum": 0.999, "moving_mean_initializer": {"config": {}, "class_name": "Zeros"}, "trainable": true, "gamma_constraint": null, "name": "block_13_project_BN", "moving_variance_initializer": {"config": {}, "class_name": "Ones"}, "gamma_initializer": {"config": {}, "class_name": "Ones"}, "axis": -1, "beta_constraint": null, "epsilon": 0.001}, "class_name": "BatchNormalization", "inbound_nodes": [[["block_13_project", 0, 0, {}]]]}, {"name": "block_14_expand", "config": {"bias_initializer": {"config": {}, "class_name": "Zeros"}, "kernel_constraint": null, "dtype": "float32", "strides": [1, 1], "bias_constraint": null, "trainable": true, "kernel_regularizer": null, "activity_regularizer": null, "name": "block_14_expand", "use_bias": false, "kernel_size": [1, 1], "dilation_rate": [1, 1], "padding": "same", "kernel_initializer": {"config": {"seed": null, "scale": 1.0, "mode": "fan_avg", "distribution": "uniform"}, "class_name": "VarianceScaling"}, "bias_regularizer": null, "data_format": "channels_last", "activation": "linear", "filters": 960}, "class_name": "Conv2D", "inbound_nodes": [[["block_13_project_BN", 0, 0, {}]]]}, {"name": "block_14_expand_BN", "config": {"scale": true, "beta_regularizer": null, "gamma_regularizer": null, "dtype": "float32", "beta_initializer": {"config": {}, "class_name": "Zeros"}, "center": true, "momentum": 0.999, "moving_mean_initializer": {"config": {}, "class_name": "Zeros"}, "trainable": true, "gamma_constraint": null, "name": "block_14_expand_BN", "moving_variance_initializer": {"config": {}, "class_name": "Ones"}, "gamma_initializer": {"config": {}, "class_name": "Ones"}, "axis": -1, "beta_constraint": null, "epsilon": 0.001}, "class_name": "BatchNormalization", "inbound_nodes": [[["block_14_expand", 0, 0, {}]]]}, {"name": "block_14_expand_relu", "config": {"name": "block_14_expand_relu", "threshold": 0.0, "negative_slope": 0.0, "dtype": "float32", "trainable": true, "max_value": 6.0}, "class_name": "ReLU", "inbound_nodes": [[["block_14_expand_BN", 0, 0, {}]]]}, {"name": "block_14_depthwise", "config": {"bias_initializer": {"config": {}, "class_name": "Zeros"}, "trainable": true, "dtype": "float32", "depth_multiplier": 1, "strides": [1, 1], "bias_constraint": null, "data_format": "channels_last", "depthwise_constraint": null, "activity_regularizer": null, "name": "block_14_depthwise", "use_bias": false, "kernel_size": [3, 3], "dilation_rate": [1, 1], "padding": "same", "depthwise_initializer": {"config": {"seed": null, "scale": 1.0, "mode": "fan_avg", "distribution": "uniform"}, "class_name": "VarianceScaling"}, "bias_regularizer": null, "depthwise_regularizer": null, "activation": "linear"}, "class_name": "DepthwiseConv2D", "inbound_nodes": [[["block_14_expand_relu", 0, 0, {}]]]}, {"name": "block_14_depthwise_BN", "config": {"scale": true, "beta_regularizer": null, "gamma_regularizer": null, "dtype": "float32", "beta_initializer": {"config": {}, "class_name": "Zeros"}, "center": true, "momentum": 0.999, "moving_mean_initializer": {"config": {}, "class_name": "Zeros"}, "trainable": true, "gamma_constraint": null, "name": "block_14_depthwise_BN", "moving_variance_initializer": {"config": {}, "class_name": "Ones"}, "gamma_initializer": {"config": {}, "class_name": "Ones"}, "axis": -1, "beta_constraint": null, "epsilon": 0.001}, "class_name": "BatchNormalization", "inbound_nodes": [[["block_14_depthwise", 0, 0, {}]]]}, {"name": "block_14_depthwise_relu", "config": {"name": "block_14_depthwise_relu", "threshold": 0.0, "negative_slope": 0.0, "dtype": "float32", "trainable": true, "max_value": 6.0}, "class_name": "ReLU", "inbound_nodes": [[["block_14_depthwise_BN", 0, 0, {}]]]}, {"name": "block_14_project", "config": {"bias_initializer": {"config": {}, "class_name": "Zeros"}, "kernel_constraint": null, "dtype": "float32", "strides": [1, 1], "bias_constraint": null, "trainable": true, "kernel_regularizer": null, "activity_regularizer": null, "name": "block_14_project", "use_bias": false, "kernel_size": [1, 1], "dilation_rate": [1, 1], "padding": "same", "kernel_initializer": {"config": {"seed": null, "scale": 1.0, "mode": "fan_avg", "distribution": "uniform"}, "class_name": "VarianceScaling"}, "bias_regularizer": null, "data_format": "channels_last", "activation": "linear", "filters": 160}, "class_name": "Conv2D", "inbound_nodes": [[["block_14_depthwise_relu", 0, 0, {}]]]}, {"name": "block_14_project_BN", "config": {"scale": true, "beta_regularizer": null, "gamma_regularizer": null, "dtype": "float32", "beta_initializer": {"config": {}, "class_name": "Zeros"}, "center": true, "momentum": 0.999, "moving_mean_initializer": {"config": {}, "class_name": "Zeros"}, "trainable": true, "gamma_constraint": null, "name": "block_14_project_BN", "moving_variance_initializer": {"config": {}, "class_name": "Ones"}, "gamma_initializer": {"config": {}, "class_name": "Ones"}, "axis": -1, "beta_constraint": null, "epsilon": 0.001}, "class_name": "BatchNormalization", "inbound_nodes": [[["block_14_project", 0, 0, {}]]]}, {"name": "block_14_add", "config": {"name": "block_14_add", "trainable": true, "dtype": "float32"}, "class_name": "Add", "inbound_nodes": [[["block_13_project_BN", 0, 0, {}], ["block_14_project_BN", 0, 0, {}]]]}, {"name": "block_15_expand", "config": {"bias_initializer": {"config": {}, "class_name": "Zeros"}, "kernel_constraint": null, "dtype": "float32", "strides": [1, 1], "bias_constraint": null, "trainable": true, "kernel_regularizer": null, "activity_regularizer": null, "name": "block_15_expand", "use_bias": false, "kernel_size": [1, 1], "dilation_rate": [1, 1], "padding": "same", "kernel_initializer": {"config": {"seed": null, "scale": 1.0, "mode": "fan_avg", "distribution": "uniform"}, "class_name": "VarianceScaling"}, "bias_regularizer": null, "data_format": "channels_last", "activation": "linear", "filters": 960}, "class_name": "Conv2D", "inbound_nodes": [[["block_14_add", 0, 0, {}]]]}, {"name": "block_15_expand_BN", "config": {"scale": true, "beta_regularizer": null, "gamma_regularizer": null, "dtype": "float32", "beta_initializer": {"config": {}, "class_name": "Zeros"}, "center": true, "momentum": 0.999, "moving_mean_initializer": {"config": {}, "class_name": "Zeros"}, "trainable": true, "gamma_constraint": null, "name": "block_15_expand_BN", "moving_variance_initializer": {"config": {}, "class_name": "Ones"}, "gamma_initializer": {"config": {}, "class_name": "Ones"}, "axis": -1, "beta_constraint": null, "epsilon": 0.001}, "class_name": "BatchNormalization", "inbound_nodes": [[["block_15_expand", 0, 0, {}]]]}, {"name": "block_15_expand_relu", "config": {"name": "block_15_expand_relu", "threshold": 0.0, "negative_slope": 0.0, "dtype": "float32", "trainable": true, "max_value": 6.0}, "class_name": "ReLU", "inbound_nodes": [[["block_15_expand_BN", 0, 0, {}]]]}, {"name": "block_15_depthwise", "config": {"bias_initializer": {"config": {}, "class_name": "Zeros"}, "trainable": true, "dtype": "float32", "depth_multiplier": 1, "strides": [1, 1], "bias_constraint": null, "data_format": "channels_last", "depthwise_constraint": null, "activity_regularizer": null, "name": "block_15_depthwise", "use_bias": false, "kernel_size": [3, 3], "dilation_rate": [1, 1], "padding": "same", "depthwise_initializer": {"config": {"seed": null, "scale": 1.0, "mode": "fan_avg", "distribution": "uniform"}, "class_name": "VarianceScaling"}, "bias_regularizer": null, "depthwise_regularizer": null, "activation": "linear"}, "class_name": "DepthwiseConv2D", "inbound_nodes": [[["block_15_expand_relu", 0, 0, {}]]]}, {"name": "block_15_depthwise_BN", "config": {"scale": true, "beta_regularizer": null, "gamma_regularizer": null, "dtype": "float32", "beta_initializer": {"config": {}, "class_name": "Zeros"}, "center": true, "momentum": 0.999, "moving_mean_initializer": {"config": {}, "class_name": "Zeros"}, "trainable": true, "gamma_constraint": null, "name": "block_15_depthwise_BN", "moving_variance_initializer": {"config": {}, "class_name": "Ones"}, "gamma_initializer": {"config": {}, "class_name": "Ones"}, "axis": -1, "beta_constraint": null, "epsilon": 0.001}, "class_name": "BatchNormalization", "inbound_nodes": [[["block_15_depthwise", 0, 0, {}]]]}, {"name": "block_15_depthwise_relu", "config": {"name": "block_15_depthwise_relu", "threshold": 0.0, "negative_slope": 0.0, "dtype": "float32", "trainable": true, "max_value": 6.0}, "class_name": "ReLU", "inbound_nodes": [[["block_15_depthwise_BN", 0, 0, {}]]]}, {"name": "block_15_project", "config": {"bias_initializer": {"config": {}, "class_name": "Zeros"}, "kernel_constraint": null, "dtype": "float32", "strides": [1, 1], "bias_constraint": null, "trainable": true, "kernel_regularizer": null, "activity_regularizer": null, "name": "block_15_project", "use_bias": false, "kernel_size": [1, 1], "dilation_rate": [1, 1], "padding": "same", "kernel_initializer": {"config": {"seed": null, "scale": 1.0, "mode": "fan_avg", "distribution": "uniform"}, "class_name": "VarianceScaling"}, "bias_regularizer": null, "data_format": "channels_last", "activation": "linear", "filters": 160}, "class_name": "Conv2D", "inbound_nodes": [[["block_15_depthwise_relu", 0, 0, {}]]]}, {"name": "block_15_project_BN", "config": {"scale": true, "beta_regularizer": null, "gamma_regularizer": null, "dtype": "float32", "beta_initializer": {"config": {}, "class_name": "Zeros"}, "center": true, "momentum": 0.999, "moving_mean_initializer": {"config": {}, "class_name": "Zeros"}, "trainable": true, "gamma_constraint": null, "name": "block_15_project_BN", "moving_variance_initializer": {"config": {}, "class_name": "Ones"}, "gamma_initializer": {"config": {}, "class_name": "Ones"}, "axis": -1, "beta_constraint": null, "epsilon": 0.001}, "class_name": "BatchNormalization", "inbound_nodes": [[["block_15_project", 0, 0, {}]]]}, {"name": "block_15_add", "config": {"name": "block_15_add", "trainable": true, "dtype": "float32"}, "class_name": "Add", "inbound_nodes": [[["block_14_add", 0, 0, {}], ["block_15_project_BN", 0, 0, {}]]]}, {"name": "block_16_expand", "config": {"bias_initializer": {"config": {}, "class_name": "Zeros"}, "kernel_constraint": null, "dtype": "float32", "strides": [1, 1], "bias_constraint": null, "trainable": true, "kernel_regularizer": null, "activity_regularizer": null, "name": "block_16_expand", "use_bias": false, "kernel_size": [1, 1], "dilation_rate": [1, 1], "padding": "same", "kernel_initializer": {"config": {"seed": null, "scale": 1.0, "mode": "fan_avg", "distribution": "uniform"}, "class_name": "VarianceScaling"}, "bias_regularizer": null, "data_format": "channels_last", "activation": "linear", "filters": 960}, "class_name": "Conv2D", "inbound_nodes": [[["block_15_add", 0, 0, {}]]]}, {"name": "block_16_expand_BN", "config": {"scale": true, "beta_regularizer": null, "gamma_regularizer": null, "dtype": "float32", "beta_initializer": {"config": {}, "class_name": "Zeros"}, "center": true, "momentum": 0.999, "moving_mean_initializer": {"config": {}, "class_name": "Zeros"}, "trainable": true, "gamma_constraint": null, "name": "block_16_expand_BN", "moving_variance_initializer": {"config": {}, "class_name": "Ones"}, "gamma_initializer": {"config": {}, "class_name": "Ones"}, "axis": -1, "beta_constraint": null, "epsilon": 0.001}, "class_name": "BatchNormalization", "inbound_nodes": [[["block_16_expand", 0, 0, {}]]]}, {"name": "block_16_expand_relu", "config": {"name": "block_16_expand_relu", "threshold": 0.0, "negative_slope": 0.0, "dtype": "float32", "trainable": true, "max_value": 6.0}, "class_name": "ReLU", "inbound_nodes": [[["block_16_expand_BN", 0, 0, {}]]]}, {"name": "block_16_depthwise", "config": {"bias_initializer": {"config": {}, "class_name": "Zeros"}, "trainable": true, "dtype": "float32", "depth_multiplier": 1, "strides": [1, 1], "bias_constraint": null, "data_format": "channels_last", "depthwise_constraint": null, "activity_regularizer": null, "name": "block_16_depthwise", "use_bias": false, "kernel_size": [3, 3], "dilation_rate": [1, 1], "padding": "same", "depthwise_initializer": {"config": {"seed": null, "scale": 1.0, "mode": "fan_avg", "distribution": "uniform"}, "class_name": "VarianceScaling"}, "bias_regularizer": null, "depthwise_regularizer": null, "activation": "linear"}, "class_name": "DepthwiseConv2D", "inbound_nodes": [[["block_16_expand_relu", 0, 0, {}]]]}, {"name": "block_16_depthwise_BN", "config": {"scale": true, "beta_regularizer": null, "gamma_regularizer": null, "dtype": "float32", "beta_initializer": {"config": {}, "class_name": "Zeros"}, "center": true, "momentum": 0.999, "moving_mean_initializer": {"config": {}, "class_name": "Zeros"}, "trainable": true, "gamma_constraint": null, "name": "block_16_depthwise_BN", "moving_variance_initializer": {"config": {}, "class_name": "Ones"}, "gamma_initializer": {"config": {}, "class_name": "Ones"}, "axis": -1, "beta_constraint": null, "epsilon": 0.001}, "class_name": "BatchNormalization", "inbound_nodes": [[["block_16_depthwise", 0, 0, {}]]]}, {"name": "block_16_depthwise_relu", "config": {"name": "block_16_depthwise_relu", "threshold": 0.0, "negative_slope": 0.0, "dtype": "float32", "trainable": true, "max_value": 6.0}, "class_name": "ReLU", "inbound_nodes": [[["block_16_depthwise_BN", 0, 0, {}]]]}, {"name": "block_16_project", "config": {"bias_initializer": {"config": {}, "class_name": "Zeros"}, "kernel_constraint": null, "dtype": "float32", "strides": [1, 1], "bias_constraint": null, "trainable": true, "kernel_regularizer": null, "activity_regularizer": null, "name": "block_16_project", "use_bias": false, "kernel_size": [1, 1], "dilation_rate": [1, 1], "padding": "same", "kernel_initializer": {"config": {"seed": null, "scale": 1.0, "mode": "fan_avg", "distribution": "uniform"}, "class_name": "VarianceScaling"}, "bias_regularizer": null, "data_format": "channels_last", "activation": "linear", "filters": 320}, "class_name": "Conv2D", "inbound_nodes": [[["block_16_depthwise_relu", 0, 0, {}]]]}, {"name": "block_16_project_BN", "config": {"scale": true, "beta_regularizer": null, "gamma_regularizer": null, "dtype": "float32", "beta_initializer": {"config": {}, "class_name": "Zeros"}, "center": true, "momentum": 0.999, "moving_mean_initializer": {"config": {}, "class_name": "Zeros"}, "trainable": true, "gamma_constraint": null, "name": "block_16_project_BN", "moving_variance_initializer": {"config": {}, "class_name": "Ones"}, "gamma_initializer": {"config": {}, "class_name": "Ones"}, "axis": -1, "beta_constraint": null, "epsilon": 0.001}, "class_name": "BatchNormalization", "inbound_nodes": [[["block_16_project", 0, 0, {}]]]}, {"name": "Conv_1", "config": {"bias_initializer": {"config": {}, "class_name": "Zeros"}, "kernel_constraint": null, "dtype": "float32", "strides": [1, 1], "bias_constraint": null, "trainable": true, "kernel_regularizer": null, "activity_regularizer": null, "name": "Conv_1", "use_bias": false, "kernel_size": [1, 1], "dilation_rate": [1, 1], "padding": "valid", "kernel_initializer": {"config": {"seed": null, "scale": 1.0, "mode": "fan_avg", "distribution": "uniform"}, "class_name": "VarianceScaling"}, "bias_regularizer": null, "data_format": "channels_last", "activation": "linear", "filters": 1280}, "class_name": "Conv2D", "inbound_nodes": [[["block_16_project_BN", 0, 0, {}]]]}, {"name": "Conv_1_bn", "config": {"scale": true, "beta_regularizer": null, "gamma_regularizer": null, "dtype": "float32", "beta_initializer": {"config": {}, "class_name": "Zeros"}, "center": true, "momentum": 0.999, "moving_mean_initializer": {"config": {}, "class_name": "Zeros"}, "trainable": true, "gamma_constraint": null, "name": "Conv_1_bn", "moving_variance_initializer": {"config": {}, "class_name": "Ones"}, "gamma_initializer": {"config": {}, "class_name": "Ones"}, "axis": -1, "beta_constraint": null, "epsilon": 0.001}, "class_name": "BatchNormalization", "inbound_nodes": [[["Conv_1", 0, 0, {}]]]}, {"name": "out_relu", "config": {"name": "out_relu", "threshold": 0.0, "negative_slope": 0.0, "dtype": "float32", "trainable": true, "max_value": 6.0}, "class_name": "ReLU", "inbound_nodes": [[["Conv_1_bn", 0, 0, {}]]]}, {"name": "global_average_pooling2d_1", "config": {"name": "global_average_pooling2d_1", "data_format": "channels_last", "trainable": true, "dtype": "float32"}, "class_name": "GlobalAveragePooling2D", "inbound_nodes": [[["out_relu", 0, 0, {}]]]}, {"name": "dense_1", "config": {"bias_initializer": {"config": {}, "class_name": "Zeros"}, "dtype": "float32", "units": 512, "bias_constraint": null, "trainable": true, "kernel_regularizer": null, "activity_regularizer": null, "name": "dense_1", "kernel_constraint": null, "use_bias": true, "kernel_initializer": {"config": {"seed": null, "scale": 1.0, "mode": "fan_avg", "distribution": "uniform"}, "class_name": "VarianceScaling"}, "bias_regularizer": null, "activation": "relu"}, "class_name": "Dense", "inbound_nodes": [[["global_average_pooling2d_1", 0, 0, {}]]]}, {"name": "dense_2", "config": {"bias_initializer": {"config": {}, "class_name": "Zeros"}, "dtype": "float32", "units": 512, "bias_constraint": null, "trainable": true, "kernel_regularizer": null, "activity_regularizer": null, "name": "dense_2", "kernel_constraint": null, "use_bias": true, "kernel_initializer": {"config": {"seed": null, "scale": 1.0, "mode": "fan_avg", "distribution": "uniform"}, "class_name": "VarianceScaling"}, "bias_regularizer": null, "activation": "relu"}, "class_name": "Dense", "inbound_nodes": [[["dense_1", 0, 0, {}]]]}, {"name": "dense_3", "config": {"bias_initializer": {"config": {}, "class_name": "Zeros"}, "dtype": "float32", "units": 3, "bias_constraint": null, "trainable": true, "kernel_regularizer": null, "activity_regularizer": null, "name": "dense_3", "kernel_constraint": null, "use_bias": true, "kernel_initializer": {"config": {"seed": null, "scale": 1.0, "mode": "fan_avg", "distribution": "uniform"}, "class_name": "VarianceScaling"}, "bias_regularizer": null, "activation": "softmax"}, "class_name": "Dense", "inbound_nodes": [[["dense_2", 0, 0, {}]]]}], "input_layers": [["input_1", 0, 0]], "output_layers": [["dense_3", 0, 0]]}, "class_name": "Model"}, "backend": "tensorflow"}, "format": "layers-model", "convertedBy": "TensorFlow.js Converter v1.3.1", "weightsManifest": [{"weights": [{"name": "Conv1/kernel", "shape": [3, 3, 3, 32], "dtype": "float32"}, {"name": "Conv_1/kernel", "shape": [1, 1, 320, 1280], "dtype": "float32"}, {"name": "Conv_1_bn/gamma", "shape": [1280], "dtype": "float32"}, {"name": "Conv_1_bn/beta", "shape": [1280], "dtype": "float32"}, {"name": "Conv_1_bn/moving_mean", "shape": [1280], "dtype": "float32"}, {"name": "Conv_1_bn/moving_variance", "shape": [1280], "dtype": "float32"}, {"name": "block_10_depthwise/depthwise_kernel", "shape": [3, 3, 384, 1], "dtype": "float32"}, {"name": "block_10_depthwise_BN/gamma", "shape": [384], "dtype": "float32"}, {"name": "block_10_depthwise_BN/beta", "shape": [384], "dtype": "float32"}, {"name": "block_10_depthwise_BN/moving_mean", "shape": [384], "dtype": "float32"}, {"name": "block_10_depthwise_BN/moving_variance", "shape": [384], "dtype": "float32"}, {"name": "block_10_expand/kernel", "shape": [1, 1, 64, 384], "dtype": "float32"}, {"name": "block_10_expand_BN/gamma", "shape": [384], "dtype": "float32"}, {"name": "block_10_expand_BN/beta", "shape": [384], "dtype": "float32"}, {"name": "block_10_expand_BN/moving_mean", "shape": [384], "dtype": "float32"}, {"name": "block_10_expand_BN/moving_variance", "shape": [384], "dtype": "float32"}, {"name": "block_10_project/kernel", "shape": [1, 1, 384, 96], "dtype": "float32"}, {"name": "block_10_project_BN/gamma", "shape": [96], "dtype": "float32"}, {"name": "block_10_project_BN/beta", "shape": [96], "dtype": "float32"}, {"name": "block_10_project_BN/moving_mean", "shape": [96], "dtype": "float32"}, {"name": "block_10_project_BN/moving_variance", "shape": [96], "dtype": "float32"}, {"name": "block_11_depthwise/depthwise_kernel", "shape": [3, 3, 576, 1], "dtype": "float32"}, {"name": "block_11_depthwise_BN/gamma", "shape": [576], "dtype": "float32"}, {"name": "block_11_depthwise_BN/beta", "shape": [576], "dtype": "float32"}, {"name": "block_11_depthwise_BN/moving_mean", "shape": [576], "dtype": "float32"}, {"name": "block_11_depthwise_BN/moving_variance", "shape": [576], "dtype": "float32"}, {"name": "block_11_expand/kernel", "shape": [1, 1, 96, 576], "dtype": "float32"}, {"name": "block_11_expand_BN/gamma", "shape": [576], "dtype": "float32"}, {"name": "block_11_expand_BN/beta", "shape": [576], "dtype": "float32"}, {"name": "block_11_expand_BN/moving_mean", "shape": [576], "dtype": "float32"}, {"name": "block_11_expand_BN/moving_variance", "shape": [576], "dtype": "float32"}, {"name": "block_11_project/kernel", "shape": [1, 1, 576, 96], "dtype": "float32"}, {"name": "block_11_project_BN/gamma", "shape": [96], "dtype": "float32"}, {"name": "block_11_project_BN/beta", "shape": [96], "dtype": "float32"}, {"name": "block_11_project_BN/moving_mean", "shape": [96], "dtype": "float32"}, {"name": "block_11_project_BN/moving_variance", "shape": [96], "dtype": "float32"}, {"name": "block_12_depthwise/depthwise_kernel", "shape": [3, 3, 576, 1], "dtype": "float32"}, {"name": "block_12_depthwise_BN/gamma", "shape": [576], "dtype": "float32"}, {"name": "block_12_depthwise_BN/beta", "shape": [576], "dtype": "float32"}, {"name": "block_12_depthwise_BN/moving_mean", "shape": [576], "dtype": "float32"}, {"name": "block_12_depthwise_BN/moving_variance", "shape": [576], "dtype": "float32"}, {"name": "block_12_expand/kernel", "shape": [1, 1, 96, 576], "dtype": "float32"}, {"name": "block_12_expand_BN/gamma", "shape": [576], "dtype": "float32"}, {"name": "block_12_expand_BN/beta", "shape": [576], "dtype": "float32"}, {"name": "block_12_expand_BN/moving_mean", "shape": [576], "dtype": "float32"}, {"name": "block_12_expand_BN/moving_variance", "shape": [576], "dtype": "float32"}, {"name": "block_12_project/kernel", "shape": [1, 1, 576, 96], "dtype": "float32"}, {"name": "block_12_project_BN/gamma", "shape": [96], "dtype": "float32"}, {"name": "block_12_project_BN/beta", "shape": [96], "dtype": "float32"}, {"name": "block_12_project_BN/moving_mean", "shape": [96], "dtype": "float32"}, {"name": "block_12_project_BN/moving_variance", "shape": [96], "dtype": "float32"}, {"name": "block_13_depthwise/depthwise_kernel", "shape": [3, 3, 576, 1], "dtype": "float32"}, {"name": "block_13_depthwise_BN/gamma", "shape": [576], "dtype": "float32"}, {"name": "block_13_depthwise_BN/beta", "shape": [576], "dtype": "float32"}, {"name": "block_13_depthwise_BN/moving_mean", "shape": [576], "dtype": "float32"}, {"name": "block_13_depthwise_BN/moving_variance", "shape": [576], "dtype": "float32"}, {"name": "block_13_expand/kernel", "shape": [1, 1, 96, 576], "dtype": "float32"}, {"name": "block_13_expand_BN/gamma", "shape": [576], "dtype": "float32"}, {"name": "block_13_expand_BN/beta", "shape": [576], "dtype": "float32"}, {"name": "block_13_expand_BN/moving_mean", "shape": [576], "dtype": "float32"}, {"name": "block_13_expand_BN/moving_variance", "shape": [576], "dtype": "float32"}, {"name": "block_13_project/kernel", "shape": [1, 1, 576, 160], "dtype": "float32"}, {"name": "block_13_project_BN/gamma", "shape": [160], "dtype": "float32"}, {"name": "block_13_project_BN/beta", "shape": [160], "dtype": "float32"}, {"name": "block_13_project_BN/moving_mean", "shape": [160], "dtype": "float32"}, {"name": "block_13_project_BN/moving_variance", "shape": [160], "dtype": "float32"}, {"name": "block_14_depthwise/depthwise_kernel", "shape": [3, 3, 960, 1], "dtype": "float32"}, {"name": "block_14_depthwise_BN/gamma", "shape": [960], "dtype": "float32"}, {"name": "block_14_depthwise_BN/beta", "shape": [960], "dtype": "float32"}, {"name": "block_14_depthwise_BN/moving_mean", "shape": [960], "dtype": "float32"}, {"name": "block_14_depthwise_BN/moving_variance", "shape": [960], "dtype": "float32"}, {"name": "block_14_expand/kernel", "shape": [1, 1, 160, 960], "dtype": "float32"}, {"name": "block_14_expand_BN/gamma", "shape": [960], "dtype": "float32"}, {"name": "block_14_expand_BN/beta", "shape": [960], "dtype": "float32"}, {"name": "block_14_expand_BN/moving_mean", "shape": [960], "dtype": "float32"}, {"name": "block_14_expand_BN/moving_variance", "shape": [960], "dtype": "float32"}, {"name": "block_14_project/kernel", "shape": [1, 1, 960, 160], "dtype": "float32"}, {"name": "block_14_project_BN/gamma", "shape": [160], "dtype": "float32"}, {"name": "block_14_project_BN/beta", "shape": [160], "dtype": "float32"}, {"name": "block_14_project_BN/moving_mean", "shape": [160], "dtype": "float32"}, {"name": "block_14_project_BN/moving_variance", "shape": [160], "dtype": "float32"}, {"name": "block_15_depthwise/depthwise_kernel", "shape": [3, 3, 960, 1], "dtype": "float32"}, {"name": "block_15_depthwise_BN/gamma", "shape": [960], "dtype": "float32"}, {"name": "block_15_depthwise_BN/beta", "shape": [960], "dtype": "float32"}, {"name": "block_15_depthwise_BN/moving_mean", "shape": [960], "dtype": "float32"}, {"name": "block_15_depthwise_BN/moving_variance", "shape": [960], "dtype": "float32"}, {"name": "block_15_expand/kernel", "shape": [1, 1, 160, 960], "dtype": "float32"}, {"name": "block_15_expand_BN/gamma", "shape": [960], "dtype": "float32"}, {"name": "block_15_expand_BN/beta", "shape": [960], "dtype": "float32"}, {"name": "block_15_expand_BN/moving_mean", "shape": [960], "dtype": "float32"}, {"name": "block_15_expand_BN/moving_variance", "shape": [960], "dtype": "float32"}, {"name": "block_15_project/kernel", "shape": [1, 1, 960, 160], "dtype": "float32"}, {"name": "block_15_project_BN/gamma", "shape": [160], "dtype": "float32"}, {"name": "block_15_project_BN/beta", "shape": [160], "dtype": "float32"}, {"name": "block_15_project_BN/moving_mean", "shape": [160], "dtype": "float32"}, {"name": "block_15_project_BN/moving_variance", "shape": [160], "dtype": "float32"}, {"name": "block_16_depthwise/depthwise_kernel", "shape": [3, 3, 960, 1], "dtype": "float32"}, {"name": "block_16_depthwise_BN/gamma", "shape": [960], "dtype": "float32"}, {"name": "block_16_depthwise_BN/beta", "shape": [960], "dtype": "float32"}, {"name": "block_16_depthwise_BN/moving_mean", "shape": [960], "dtype": "float32"}, {"name": "block_16_depthwise_BN/moving_variance", "shape": [960], "dtype": "float32"}, {"name": "block_16_expand/kernel", "shape": [1, 1, 160, 960], "dtype": "float32"}, {"name": "block_16_expand_BN/gamma", "shape": [960], "dtype": "float32"}, {"name": "block_16_expand_BN/beta", "shape": [960], "dtype": "float32"}, {"name": "block_16_expand_BN/moving_mean", "shape": [960], "dtype": "float32"}, {"name": "block_16_expand_BN/moving_variance", "shape": [960], "dtype": "float32"}, {"name": "block_16_project/kernel", "shape": [1, 1, 960, 320], "dtype": "float32"}, {"name": "block_16_project_BN/gamma", "shape": [320], "dtype": "float32"}, {"name": "block_16_project_BN/beta", "shape": [320], "dtype": "float32"}, {"name": "block_16_project_BN/moving_mean", "shape": [320], "dtype": "float32"}, {"name": "block_16_project_BN/moving_variance", "shape": [320], "dtype": "float32"}, {"name": "block_1_depthwise/depthwise_kernel", "shape": [3, 3, 96, 1], "dtype": "float32"}, {"name": "block_1_depthwise_BN/gamma", "shape": [96], "dtype": "float32"}, {"name": "block_1_depthwise_BN/beta", "shape": [96], "dtype": "float32"}, {"name": "block_1_depthwise_BN/moving_mean", "shape": [96], "dtype": "float32"}, {"name": "block_1_depthwise_BN/moving_variance", "shape": [96], "dtype": "float32"}, {"name": "block_1_expand/kernel", "shape": [1, 1, 16, 96], "dtype": "float32"}, {"name": "block_1_expand_BN/gamma", "shape": [96], "dtype": "float32"}, {"name": "block_1_expand_BN/beta", "shape": [96], "dtype": "float32"}, {"name": "block_1_expand_BN/moving_mean", "shape": [96], "dtype": "float32"}, {"name": "block_1_expand_BN/moving_variance", "shape": [96], "dtype": "float32"}, {"name": "block_1_project/kernel", "shape": [1, 1, 96, 24], "dtype": "float32"}, {"name": "block_1_project_BN/gamma", "shape": [24], "dtype": "float32"}, {"name": "block_1_project_BN/beta", "shape": [24], "dtype": "float32"}, {"name": "block_1_project_BN/moving_mean", "shape": [24], "dtype": "float32"}, {"name": "block_1_project_BN/moving_variance", "shape": [24], "dtype": "float32"}, {"name": "block_2_depthwise/depthwise_kernel", "shape": [3, 3, 144, 1], "dtype": "float32"}, {"name": "block_2_depthwise_BN/gamma", "shape": [144], "dtype": "float32"}, {"name": "block_2_depthwise_BN/beta", "shape": [144], "dtype": "float32"}, {"name": "block_2_depthwise_BN/moving_mean", "shape": [144], "dtype": "float32"}, {"name": "block_2_depthwise_BN/moving_variance", "shape": [144], "dtype": "float32"}, {"name": "block_2_expand/kernel", "shape": [1, 1, 24, 144], "dtype": "float32"}, {"name": "block_2_expand_BN/gamma", "shape": [144], "dtype": "float32"}, {"name": "block_2_expand_BN/beta", "shape": [144], "dtype": "float32"}, {"name": "block_2_expand_BN/moving_mean", "shape": [144], "dtype": "float32"}, {"name": "block_2_expand_BN/moving_variance", "shape": [144], "dtype": "float32"}, {"name": "block_2_project/kernel", "shape": [1, 1, 144, 24], "dtype": "float32"}, {"name": "block_2_project_BN/gamma", "shape": [24], "dtype": "float32"}, {"name": "block_2_project_BN/beta", "shape": [24], "dtype": "float32"}, {"name": "block_2_project_BN/moving_mean", "shape": [24], "dtype": "float32"}, {"name": "block_2_project_BN/moving_variance", "shape": [24], "dtype": "float32"}, {"name": "block_3_depthwise/depthwise_kernel", "shape": [3, 3, 144, 1], "dtype": "float32"}, {"name": "block_3_depthwise_BN/gamma", "shape": [144], "dtype": "float32"}, {"name": "block_3_depthwise_BN/beta", "shape": [144], "dtype": "float32"}, {"name": "block_3_depthwise_BN/moving_mean", "shape": [144], "dtype": "float32"}, {"name": "block_3_depthwise_BN/moving_variance", "shape": [144], "dtype": "float32"}, {"name": "block_3_expand/kernel", "shape": [1, 1, 24, 144], "dtype": "float32"}, {"name": "block_3_expand_BN/gamma", "shape": [144], "dtype": "float32"}, {"name": "block_3_expand_BN/beta", "shape": [144], "dtype": "float32"}, {"name": "block_3_expand_BN/moving_mean", "shape": [144], "dtype": "float32"}, {"name": "block_3_expand_BN/moving_variance", "shape": [144], "dtype": "float32"}, {"name": "block_3_project/kernel", "shape": [1, 1, 144, 32], "dtype": "float32"}, {"name": "block_3_project_BN/gamma", "shape": [32], "dtype": "float32"}, {"name": "block_3_project_BN/beta", "shape": [32], "dtype": "float32"}, {"name": "block_3_project_BN/moving_mean", "shape": [32], "dtype": "float32"}, {"name": "block_3_project_BN/moving_variance", "shape": [32], "dtype": "float32"}, {"name": "block_4_depthwise/depthwise_kernel", "shape": [3, 3, 192, 1], "dtype": "float32"}, {"name": "block_4_depthwise_BN/gamma", "shape": [192], "dtype": "float32"}, {"name": "block_4_depthwise_BN/beta", "shape": [192], "dtype": "float32"}, {"name": "block_4_depthwise_BN/moving_mean", "shape": [192], "dtype": "float32"}, {"name": "block_4_depthwise_BN/moving_variance", "shape": [192], "dtype": "float32"}, {"name": "block_4_expand/kernel", "shape": [1, 1, 32, 192], "dtype": "float32"}, {"name": "block_4_expand_BN/gamma", "shape": [192], "dtype": "float32"}, {"name": "block_4_expand_BN/beta", "shape": [192], "dtype": "float32"}, {"name": "block_4_expand_BN/moving_mean", "shape": [192], "dtype": "float32"}, {"name": "block_4_expand_BN/moving_variance", "shape": [192], "dtype": "float32"}, {"name": "block_4_project/kernel", "shape": [1, 1, 192, 32], "dtype": "float32"}, {"name": "block_4_project_BN/gamma", "shape": [32], "dtype": "float32"}, {"name": "block_4_project_BN/beta", "shape": [32], "dtype": "float32"}, {"name": "block_4_project_BN/moving_mean", "shape": [32], "dtype": "float32"}, {"name": "block_4_project_BN/moving_variance", "shape": [32], "dtype": "float32"}, {"name": "block_5_depthwise/depthwise_kernel", "shape": [3, 3, 192, 1], "dtype": "float32"}, {"name": "block_5_depthwise_BN/gamma", "shape": [192], "dtype": "float32"}, {"name": "block_5_depthwise_BN/beta", "shape": [192], "dtype": "float32"}, {"name": "block_5_depthwise_BN/moving_mean", "shape": [192], "dtype": "float32"}, {"name": "block_5_depthwise_BN/moving_variance", "shape": [192], "dtype": "float32"}, {"name": "block_5_expand/kernel", "shape": [1, 1, 32, 192], "dtype": "float32"}, {"name": "block_5_expand_BN/gamma", "shape": [192], "dtype": "float32"}, {"name": "block_5_expand_BN/beta", "shape": [192], "dtype": "float32"}, {"name": "block_5_expand_BN/moving_mean", "shape": [192], "dtype": "float32"}, {"name": "block_5_expand_BN/moving_variance", "shape": [192], "dtype": "float32"}, {"name": "block_5_project/kernel", "shape": [1, 1, 192, 32], "dtype": "float32"}, {"name": "block_5_project_BN/gamma", "shape": [32], "dtype": "float32"}, {"name": "block_5_project_BN/beta", "shape": [32], "dtype": "float32"}, {"name": "block_5_project_BN/moving_mean", "shape": [32], "dtype": "float32"}, {"name": "block_5_project_BN/moving_variance", "shape": [32], "dtype": "float32"}, {"name": "block_6_depthwise/depthwise_kernel", "shape": [3, 3, 192, 1], "dtype": "float32"}, {"name": "block_6_depthwise_BN/gamma", "shape": [192], "dtype": "float32"}, {"name": "block_6_depthwise_BN/beta", "shape": [192], "dtype": "float32"}, {"name": "block_6_depthwise_BN/moving_mean", "shape": [192], "dtype": "float32"}, {"name": "block_6_depthwise_BN/moving_variance", "shape": [192], "dtype": "float32"}, {"name": "block_6_expand/kernel", "shape": [1, 1, 32, 192], "dtype": "float32"}, {"name": "block_6_expand_BN/gamma", "shape": [192], "dtype": "float32"}, {"name": "block_6_expand_BN/beta", "shape": [192], "dtype": "float32"}, {"name": "block_6_expand_BN/moving_mean", "shape": [192], "dtype": "float32"}, {"name": "block_6_expand_BN/moving_variance", "shape": [192], "dtype": "float32"}, {"name": "block_6_project/kernel", "shape": [1, 1, 192, 64], "dtype": "float32"}, {"name": "block_6_project_BN/gamma", "shape": [64], "dtype": "float32"}, {"name": "block_6_project_BN/beta", "shape": [64], "dtype": "float32"}, {"name": "block_6_project_BN/moving_mean", "shape": [64], "dtype": "float32"}, {"name": "block_6_project_BN/moving_variance", "shape": [64], "dtype": "float32"}, {"name": "block_7_depthwise/depthwise_kernel", "shape": [3, 3, 384, 1], "dtype": "float32"}, {"name": "block_7_depthwise_BN/gamma", "shape": [384], "dtype": "float32"}, {"name": "block_7_depthwise_BN/beta", "shape": [384], "dtype": "float32"}, {"name": "block_7_depthwise_BN/moving_mean", "shape": [384], "dtype": "float32"}, {"name": "block_7_depthwise_BN/moving_variance", "shape": [384], "dtype": "float32"}, {"name": "block_7_expand/kernel", "shape": [1, 1, 64, 384], "dtype": "float32"}, {"name": "block_7_expand_BN/gamma", "shape": [384], "dtype": "float32"}, {"name": "block_7_expand_BN/beta", "shape": [384], "dtype": "float32"}, {"name": "block_7_expand_BN/moving_mean", "shape": [384], "dtype": "float32"}, {"name": "block_7_expand_BN/moving_variance", "shape": [384], "dtype": "float32"}, {"name": "block_7_project/kernel", "shape": [1, 1, 384, 64], "dtype": "float32"}, {"name": "block_7_project_BN/gamma", "shape": [64], "dtype": "float32"}, {"name": "block_7_project_BN/beta", "shape": [64], "dtype": "float32"}, {"name": "block_7_project_BN/moving_mean", "shape": [64], "dtype": "float32"}, {"name": "block_7_project_BN/moving_variance", "shape": [64], "dtype": "float32"}, {"name": "block_8_depthwise/depthwise_kernel", "shape": [3, 3, 384, 1], "dtype": "float32"}, {"name": "block_8_depthwise_BN/gamma", "shape": [384], "dtype": "float32"}, {"name": "block_8_depthwise_BN/beta", "shape": [384], "dtype": "float32"}, {"name": "block_8_depthwise_BN/moving_mean", "shape": [384], "dtype": "float32"}, {"name": "block_8_depthwise_BN/moving_variance", "shape": [384], "dtype": "float32"}, {"name": "block_8_expand/kernel", "shape": [1, 1, 64, 384], "dtype": "float32"}, {"name": "block_8_expand_BN/gamma", "shape": [384], "dtype": "float32"}, {"name": "block_8_expand_BN/beta", "shape": [384], "dtype": "float32"}, {"name": "block_8_expand_BN/moving_mean", "shape": [384], "dtype": "float32"}, {"name": "block_8_expand_BN/moving_variance", "shape": [384], "dtype": "float32"}, {"name": "block_8_project/kernel", "shape": [1, 1, 384, 64], "dtype": "float32"}, {"name": "block_8_project_BN/gamma", "shape": [64], "dtype": "float32"}, {"name": "block_8_project_BN/beta", "shape": [64], "dtype": "float32"}, {"name": "block_8_project_BN/moving_mean", "shape": [64], "dtype": "float32"}, {"name": "block_8_project_BN/moving_variance", "shape": [64], "dtype": "float32"}, {"name": "block_9_depthwise/depthwise_kernel", "shape": [3, 3, 384, 1], "dtype": "float32"}, {"name": "block_9_depthwise_BN/gamma", "shape": [384], "dtype": "float32"}, {"name": "block_9_depthwise_BN/beta", "shape": [384], "dtype": "float32"}, {"name": "block_9_depthwise_BN/moving_mean", "shape": [384], "dtype": "float32"}, {"name": "block_9_depthwise_BN/moving_variance", "shape": [384], "dtype": "float32"}, {"name": "block_9_expand/kernel", "shape": [1, 1, 64, 384], "dtype": "float32"}, {"name": "block_9_expand_BN/gamma", "shape": [384], "dtype": "float32"}, {"name": "block_9_expand_BN/beta", "shape": [384], "dtype": "float32"}, {"name": "block_9_expand_BN/moving_mean", "shape": [384], "dtype": "float32"}, {"name": "block_9_expand_BN/moving_variance", "shape": [384], "dtype": "float32"}, {"name": "block_9_project/kernel", "shape": [1, 1, 384, 64], "dtype": "float32"}, {"name": "block_9_project_BN/gamma", "shape": [64], "dtype": "float32"}, {"name": "block_9_project_BN/beta", "shape": [64], "dtype": "float32"}, {"name": "block_9_project_BN/moving_mean", "shape": [64], "dtype": "float32"}, {"name": "block_9_project_BN/moving_variance", "shape": [64], "dtype": "float32"}, {"name": "bn_Conv1/gamma", "shape": [32], "dtype": "float32"}, {"name": "bn_Conv1/beta", "shape": [32], "dtype": "float32"}, {"name": "bn_Conv1/moving_mean", "shape": [32], "dtype": "float32"}, {"name": "bn_Conv1/moving_variance", "shape": [32], "dtype": "float32"}, {"name": "dense_1/kernel", "shape": [1280, 512], "dtype": "float32"}, {"name": "dense_1/bias", "shape": [512], "dtype": "float32"}, {"name": "dense_2/kernel", "shape": [512, 512], "dtype": "float32"}, {"name": "dense_2/bias", "shape": [512], "dtype": "float32"}, {"name": "dense_3/kernel", "shape": [512, 3], "dtype": "float32"}, {"name": "dense_3/bias", "shape": [3], "dtype": "float32"}, {"name": "expanded_conv_depthwise/depthwise_kernel", "shape": [3, 3, 32, 1], "dtype": "float32"}, {"name": "expanded_conv_depthwise_BN/gamma", "shape": [32], "dtype": "float32"}, {"name": "expanded_conv_depthwise_BN/beta", "shape": [32], "dtype": "float32"}, {"name": "expanded_conv_depthwise_BN/moving_mean", "shape": [32], "dtype": "float32"}, {"name": "expanded_conv_depthwise_BN/moving_variance", "shape": [32], "dtype": "float32"}, {"name": "expanded_conv_project/kernel", "shape": [1, 1, 32, 16], "dtype": "float32"}, {"name": "expanded_conv_project_BN/gamma", "shape": [16], "dtype": "float32"}, {"name": "expanded_conv_project_BN/beta", "shape": [16], "dtype": "float32"}, {"name": "expanded_conv_project_BN/moving_mean", "shape": [16], "dtype": "float32"}, {"name": "expanded_conv_project_BN/moving_variance", "shape": [16], "dtype": "float32"}], "paths": ["group1-shard1of4.bin", "group1-shard2of4.bin", "group1-shard3of4.bin", "group1-shard4of4.bin"]}]}